…
           'STABLE_EPOCHS_PER_DEPTH': [1, 80, 100, 120],
           'START_DEPTH': 0,
           'VIS_COUNT': 64},
 'TREE': {'BASE_SIZE': 64, 'BRANCH_NUM': 3},
 'WORKERS': 4}
/home/yang/b10_finegan/code/trainer.py:57: UserWarning: nn.init.orthogonal is now deprecated in favor of nn.init.orthogonal_.
  nn.init.orthogonal(m.weight.data, 1.0)
/home/yang/b10_finegan/code/trainer.py:52: UserWarning: nn.init.orthogonal is now deprecated in favor of nn.init.orthogonal_.
  nn.init.orthogonal(m.weight.data, 1.0)
DataParallel(
  (module): G_NET(
    (bg_code_init): INIT_STAGE_G(
      (fc): Sequential(
        (0): Linear(in_features=300, out_features=16384, bias=False)
        (1): BatchNorm1d(16384, eps=1e-05, momentum=0.1, affine=True, track_running_stats=True)
        (2): GLU()
      )
      (upsample1): Sequential(
        (0): Upsample(scale_factor=2.0, mode=nearest)
        (1): Conv2d(512, 512, kernel_size=(3, 3), stride=(1, 1), padding=(1, 1), bias=False)
        (2): BatchNorm2d(512, eps=1e-05, momentum=0.1, affine=True, track_running_stats=True)
        (3): GLU()
      )
      (upsample2): Sequential(
        (0): Upsample(scale_factor=2.0, mode=nearest)
        (1): Conv2d(256, 256, kernel_size=(3, 3), stride=(1, 1), padding=(1, 1), bias=False)
        (2): BatchNorm2d(256, eps=1e-05, momentum=0.1, affine=True, track_running_stats=True)
        (3): GLU()
      )
      (upsample3): Sequential(
        (0): Upsample(scale_factor=2.0, mode=nearest)
        (1): Conv2d(128, 128, kernel_size=(3, 3), stride=(1, 1), padding=(1, 1), bias=False)
        (2): BatchNorm2d(128, eps=1e-05, momentum=0.1, affine=True, track_running_stats=True)
        (3): GLU()
      )
    )
    (bg_code_net): ModuleList(
      (0): NEXT_STAGE_G_SAME(
        (jointConv): Sequential(
          (0): Conv2d(264, 128, kernel_size=(3, 3), stride=(1, 1), padding=(1, 1), bias=False)
          (1): BatchNorm2d(128, eps=1e-05, momentum=0.1, affine=True, track_running_stats=True)
          (2): GLU()
        )
        (residual): Sequential(
          (0): ResBlock(
            (block): Sequential(
              (0): Conv2d(64, 128, kernel_size=(3, 3), stride=(1, 1), padding=(1, 1), bias=False)
              (1): BatchNorm2d(128, eps=1e-05, momentum=0.1, affine=True, track_running_stats=True)
              (2): GLU()
              (3): Conv2d(64, 64, kernel_size=(3, 3), stride=(1, 1), padding=(1, 1), bias=False)
              (4): BatchNorm2d(64, eps=1e-05, momentum=0.1, affine=True, track_running_stats=True)
            )
          )
          (1): ResBlock(
            (block): Sequential(
              (0): Conv2d(64, 128, kernel_size=(3, 3), stride=(1, 1), padding=(1, 1), bias=False)
              (1): BatchNorm2d(128, eps=1e-05, momentum=0.1, affine=True, track_running_stats=True)
              (2): GLU()
              (3): Conv2d(64, 64, kernel_size=(3, 3), stride=(1, 1), padding=(1, 1), bias=False)
              (4): BatchNorm2d(64, eps=1e-05, momentum=0.1, affine=True, track_running_stats=True)
            )
          )
        )
        (samesample): Sequential(
          (0): Conv2d(64, 64, kernel_size=(3, 3), stride=(1, 1), padding=(1, 1), bias=False)
          (1): BatchNorm2d(64, eps=1e-05, momentum=0.1, affine=True, track_running_stats=True)
          (2): GLU()
        )
      )
    )
    (bg_img_net): ModuleList(
      (0): TO_RGB_LAYER(
        (img): Sequential(
          (0): Conv2d(32, 3, kernel_size=(3, 3), stride=(1, 1), padding=(1, 1), bias=False)
          (1): Tanh()
        )
      )
    )
    (p_code_init): INIT_STAGE_G(
      (fc): Sequential(
        (0): Linear(in_features=120, out_features=16384, bias=False)
        (1): BatchNorm1d(16384, eps=1e-05, momentum=0.1, affine=True, track_running_stats=True)
        (2): GLU()
      )
      (upsample1): Sequential(
        (0): Upsample(scale_factor=2.0, mode=nearest)
        (1): Conv2d(512, 512, kernel_size=(3, 3), stride=(1, 1), padding=(1, 1), bias=False)
        (2): BatchNorm2d(512, eps=1e-05, momentum=0.1, affine=True, track_running_stats=True)
        (3): GLU()
      )
      (upsample2): Sequential(
        (0): Upsample(scale_factor=2.0, mode=nearest)
        (1): Conv2d(256, 256, kernel_size=(3, 3), stride=(1, 1), padding=(1, 1), bias=False)
        (2): BatchNorm2d(256, eps=1e-05, momentum=0.1, affine=True, track_running_stats=True)
        (3): GLU()
      )
      (upsample3): Sequential(
        (0): Upsample(scale_factor=2.0, mode=nearest)
        (1): Conv2d(128, 128, kernel_size=(3, 3), stride=(1, 1), padding=(1, 1), bias=False)
        (2): BatchNorm2d(128, eps=1e-05, momentum=0.1, affine=True, track_running_stats=True)
        (3): GLU()
      )
    )
    (p_code_net): ModuleList(
      (0): NEXT_STAGE_G_SAME(
        (jointConv): Sequential(
          (0): Conv2d(84, 128, kernel_size=(3, 3), stride=(1, 1), padding=(1, 1), bias=False)
          (1): BatchNorm2d(128, eps=1e-05, momentum=0.1, affine=True, track_running_stats=True)
          (2): GLU()
        )
        (residual): Sequential(
          (0): ResBlock(
            (block): Sequential(
              (0): Conv2d(64, 128, kernel_size=(3, 3), stride=(1, 1), padding=(1, 1), bias=False)
              (1): BatchNorm2d(128, eps=1e-05, momentum=0.1, affine=True, track_running_stats=True)
              (2): GLU()
              (3): Conv2d(64, 64, kernel_size=(3, 3), stride=(1, 1), padding=(1, 1), bias=False)
              (4): BatchNorm2d(64, eps=1e-05, momentum=0.1, affine=True, track_running_stats=True)
            )
          )
          (1): ResBlock(
            (block): Sequential(
              (0): Conv2d(64, 128, kernel_size=(3, 3), stride=(1, 1), padding=(1, 1), bias=False)
              (1): BatchNorm2d(128, eps=1e-05, momentum=0.1, affine=True, track_running_stats=True)
              (2): GLU()
              (3): Conv2d(64, 64, kernel_size=(3, 3), stride=(1, 1), padding=(1, 1), bias=False)
              (4): BatchNorm2d(64, eps=1e-05, momentum=0.1, affine=True, track_running_stats=True)
            )
          )
        )
        (samesample): Sequential(
          (0): Conv2d(64, 64, kernel_size=(3, 3), stride=(1, 1), padding=(1, 1), bias=False)
          (1): BatchNorm2d(64, eps=1e-05, momentum=0.1, affine=True, track_running_stats=True)
          (2): GLU()
        )
      )
    )
    (p_fg_net): ModuleList(
      (0): TO_RGB_LAYER(
        (img): Sequential(
          (0): Conv2d(32, 3, kernel_size=(3, 3), stride=(1, 1), padding=(1, 1), bias=False)
          (1): Tanh()
        )
      )
    )
    (p_mk_net): ModuleList(
      (0): TO_GRAY_LAYER(
        (img): Sequential(
          (0): Conv2d(32, 1, kernel_size=(3, 3), stride=(1, 1), padding=(1, 1), bias=False)
          (1): Sigmoid()
        )
      )
    )
    (c_code_net): ModuleList(
      (0): NEXT_STAGE_G_SAME(
        (jointConv): Sequential(
          (0): Conv2d(232, 64, kernel_size=(3, 3), stride=(1, 1), padding=(1, 1), bias=False)
          (1): BatchNorm2d(64, eps=1e-05, momentum=0.1, affine=True, track_running_stats=True)
          (2): GLU()
        )
        (residual): Sequential(
          (0): ResBlock(
            (block): Sequential(
              (0): Conv2d(32, 64, kernel_size=(3, 3), stride=(1, 1), padding=(1, 1), bias=False)
              (1): BatchNorm2d(64, eps=1e-05, momentum=0.1, affine=True, track_running_stats=True)
              (2): GLU()
              (3): Conv2d(32, 32, kernel_size=(3, 3), stride=(1, 1), padding=(1, 1), bias=False)
              (4): BatchNorm2d(32, eps=1e-05, momentum=0.1, affine=True, track_running_stats=True)
            )
          )
          (1): ResBlock(
            (block): Sequential(
              (0): Conv2d(32, 64, kernel_size=(3, 3), stride=(1, 1), padding=(1, 1), bias=False)
              (1): BatchNorm2d(64, eps=1e-05, momentum=0.1, affine=True, track_running_stats=True)
              (2): GLU()
              (3): Conv2d(32, 32, kernel_size=(3, 3), stride=(1, 1), padding=(1, 1), bias=False)
              (4): BatchNorm2d(32, eps=1e-05, momentum=0.1, affine=True, track_running_stats=True)
            )
          )
        )
        (samesample): Sequential(
          (0): Conv2d(32, 32, kernel_size=(3, 3), stride=(1, 1), padding=(1, 1), bias=False)
          (1): BatchNorm2d(32, eps=1e-05, momentum=0.1, affine=True, track_running_stats=True)
          (2): GLU()
        )
      )
    )
    (c_fg_net): ModuleList(
      (0): TO_RGB_LAYER(
        (img): Sequential(
          (0): Conv2d(16, 3, kernel_size=(3, 3), stride=(1, 1), padding=(1, 1), bias=False)
          (1): Tanh()
        )
      )
    )
    (c_mk_net): ModuleList(
      (0): TO_GRAY_LAYER(
        (img): Sequential(
          (0): Conv2d(16, 1, kernel_size=(3, 3), stride=(1, 1), padding=(1, 1), bias=False)
          (1): Sigmoid()
        )
      )
    )
  )
)
DataParallel(
  (module): D_NET_BG(
    (from_RGB_net): ModuleList(
      (0): Sequential(
        (0): Conv2d(3, 256, kernel_size=(1, 1), stride=(1, 1), bias=False)
        (1): LeakyReLU(negative_slope=0.2, inplace=True)
      )
    )
    (down_net): ModuleList(
      (0): D_NET_BG_BASE(
        (conv): MnetConv(
          (input_conv): Conv2d(256, 512, kernel_size=(3, 3), stride=(1, 1), padding=(1, 1), bias=False)
          (mask_conv): Conv2d(1, 1, kernel_size=(3, 3), stride=(1, 1), padding=(1, 1), bias=False)
        )
        (conv_uncond_logits1): MnetConv(
          (input_conv): Conv2d(512, 1, kernel_size=(3, 3), stride=(1, 1), padding=(1, 1), bias=False)
          (mask_conv): Conv2d(1, 1, kernel_size=(3, 3), stride=(1, 1), padding=(1, 1), bias=False)
        )
        (conv_uncond_logits2): MnetConv(
          (input_conv): Conv2d(512, 1, kernel_size=(3, 3), stride=(1, 1), padding=(1, 1), bias=False)
          (mask_conv): Conv2d(1, 1, kernel_size=(3, 3), stride=(1, 1), padding=(1, 1), bias=False)
        )
      )
    )
  )
)
DataParallel(
  (module): D_NET_PC(
    (from_RGB_net): ModuleList(
      (0): Sequential(
        (0): Conv2d(3, 256, kernel_size=(1, 1), stride=(1, 1), bias=False)
        (1): LeakyReLU(negative_slope=0.2, inplace=True)
      )
    )
    (down_net): ModuleList(
      (0): D_NET_PC_BASE(
        (downblock1): Sequential(
          (0): Conv2d(256, 512, kernel_size=(3, 3), stride=(1, 1), padding=(1, 1), bias=False)
          (1): BatchNorm2d(512, eps=1e-05, momentum=0.1, affine=True, track_running_stats=True)
          (2): LeakyReLU(negative_slope=0.2, inplace=True)
          (3): AvgPool2d(kernel_size=2, stride=2, padding=0)
        )
        (downblock2): Sequential(
          (0): Conv2d(512, 512, kernel_size=(3, 3), stride=(1, 1), padding=(1, 1), bias=False)
          (1): BatchNorm2d(512, eps=1e-05, momentum=0.1, affine=True, track_running_stats=True)
          (2): LeakyReLU(negative_slope=0.2, inplace=True)
          (3): AvgPool2d(kernel_size=2, stride=2, padding=0)
        )
        (downblock3): Sequential(
          (0): Conv2d(512, 512, kernel_size=(3, 3), stride=(1, 1), padding=(1, 1), bias=False)
          (1): BatchNorm2d(512, eps=1e-05, momentum=0.1, affine=True, track_running_stats=True)
          (2): LeakyReLU(negative_slope=0.2, inplace=True)
          (3): AvgPool2d(kernel_size=2, stride=2, padding=0)
        )
        (logits): Sequential(
          (0): Conv2d(512, 20, kernel_size=(4, 4), stride=(4, 4))
        )
        (jointConv): Sequential(
          (0): Conv2d(512, 512, kernel_size=(3, 3), stride=(1, 1), padding=(1, 1), bias=False)
          (1): BatchNorm2d(512, eps=1e-05, momentum=0.1, affine=True, track_running_stats=True)
          (2): LeakyReLU(negative_slope=0.2, inplace=True)
        )
        (uncond_logits): Sequential(
          (0): Conv2d(512, 1, kernel_size=(4, 4), stride=(4, 4))
          (1): Sigmoid()
        )
      )
    )
  )
)
DataParallel(
  (module): D_NET_PC(
    (from_RGB_net): ModuleList(
      (0): Sequential(
        (0): Conv2d(3, 256, kernel_size=(1, 1), stride=(1, 1), bias=False)
        (1): LeakyReLU(negative_slope=0.2, inplace=True)
      )
    )
    (down_net): ModuleList(
      (0): D_NET_PC_BASE(
        (downblock1): Sequential(
          (0): Conv2d(256, 512, kernel_size=(3, 3), stride=(1, 1), padding=(1, 1), bias=False)
          (1): BatchNorm2d(512, eps=1e-05, momentum=0.1, affine=True, track_running_stats=True)
          (2): LeakyReLU(negative_slope=0.2, inplace=True)
          (3): AvgPool2d(kernel_size=2, stride=2, padding=0)
        )
        (downblock2): Sequential(
          (0): Conv2d(512, 512, kernel_size=(3, 3), stride=(1, 1), padding=(1, 1), bias=False)
          (1): BatchNorm2d(512, eps=1e-05, momentum=0.1, affine=True, track_running_stats=True)
          (2): LeakyReLU(negative_slope=0.2, inplace=True)
          (3): AvgPool2d(kernel_size=2, stride=2, padding=0)
        )
        (downblock3): Sequential(
          (0): Conv2d(512, 512, kernel_size=(3, 3), stride=(1, 1), padding=(1, 1), bias=False)
          (1): BatchNorm2d(512, eps=1e-05, momentum=0.1, affine=True, track_running_stats=True)
          (2): LeakyReLU(negative_slope=0.2, inplace=True)
          (3): AvgPool2d(kernel_size=2, stride=2, padding=0)
        )
        (logits): Sequential(
          (0): Conv2d(512, 200, kernel_size=(4, 4), stride=(4, 4))
        )
        (jointConv): Sequential(
          (0): Conv2d(512, 512, kernel_size=(3, 3), stride=(1, 1), padding=(1, 1), bias=False)
          (1): BatchNorm2d(512, eps=1e-05, momentum=0.1, affine=True, track_running_stats=True)
          (2): LeakyReLU(negative_slope=0.2, inplace=True)
        )
        (uncond_logits): Sequential(
          (0): Conv2d(512, 1, kernel_size=(4, 4), stride=(4, 4))
          (1): Sigmoid()
        )
      )
    )
  )
)
/home/yang/.local/lib/python3.6/site-packages/torch/nn/_reduction.py:43: UserWarning: size_average and reduce args will be deprecated, please use reduction='none' instead.
  warnings.warn(warning.format(ret))
Starting normal FineGAN training..
Total filenames:  11788 001.Black_footed_Albatross/Black_Footed_Albatross_0046_18.jpg
…
  warnings.warn("nn.functional.sigmoid is deprecated. Use torch.sigmoid instead.")
/pytorch/torch/csrc/utils/python_arg_parser.cpp:756: UserWarning: This overload of nonzero is deprecated:
	nonzero(Tensor input, *, Tensor out)
Consider using one of the following signatures instead:
	nonzero(Tensor input, *, bool as_tuple)
[0/1][184]Loss_D: 15.77 Loss_G: 10.96 Time: 60.25s
Save G/Ds models.
/home/yang/b10_finegan/code/model.py:16: UserWarning: nn.init.orthogonal is now deprecated in favor of nn.init.orthogonal_.
  nn.init.orthogonal(m.weight.data, 1.0)
DataParallel(
  (module): G_NET(
    (bg_code_init): INIT_STAGE_G(
      (fc): Sequential(
        (0): Linear(in_features=300, out_features=16384, bias=False)
        (1): BatchNorm1d(16384, eps=1e-05, momentum=0.1, affine=True, track_running_stats=True)
        (2): GLU()
      )
      (upsample1): Sequential(
        (0): Upsample(scale_factor=2.0, mode=nearest)
        (1): Conv2d(512, 512, kernel_size=(3, 3), stride=(1, 1), padding=(1, 1), bias=False)
        (2): BatchNorm2d(512, eps=1e-05, momentum=0.1, affine=True, track_running_stats=True)
        (3): GLU()
      )
      (upsample2): Sequential(
        (0): Upsample(scale_factor=2.0, mode=nearest)
        (1): Conv2d(256, 256, kernel_size=(3, 3), stride=(1, 1), padding=(1, 1), bias=False)
        (2): BatchNorm2d(256, eps=1e-05, momentum=0.1, affine=True, track_running_stats=True)
        (3): GLU()
      )
      (upsample3): Sequential(
        (0): Upsample(scale_factor=2.0, mode=nearest)
        (1): Conv2d(128, 128, kernel_size=(3, 3), stride=(1, 1), padding=(1, 1), bias=False)
        (2): BatchNorm2d(128, eps=1e-05, momentum=0.1, affine=True, track_running_stats=True)
        (3): GLU()
      )
    )
    (bg_code_net): ModuleList(
      (0): NEXT_STAGE_G_SAME(
        (jointConv): Sequential(
          (0): Conv2d(264, 128, kernel_size=(3, 3), stride=(1, 1), padding=(1, 1), bias=False)
          (1): BatchNorm2d(128, eps=1e-05, momentum=0.1, affine=True, track_running_stats=True)
          (2): GLU()
        )
        (residual): Sequential(
          (0): ResBlock(
            (block): Sequential(
              (0): Conv2d(64, 128, kernel_size=(3, 3), stride=(1, 1), padding=(1, 1), bias=False)
              (1): BatchNorm2d(128, eps=1e-05, momentum=0.1, affine=True, track_running_stats=True)
              (2): GLU()
              (3): Conv2d(64, 64, kernel_size=(3, 3), stride=(1, 1), padding=(1, 1), bias=False)
              (4): BatchNorm2d(64, eps=1e-05, momentum=0.1, affine=True, track_running_stats=True)
            )
          )
          (1): ResBlock(
            (block): Sequential(
              (0): Conv2d(64, 128, kernel_size=(3, 3), stride=(1, 1), padding=(1, 1), bias=False)
              (1): BatchNorm2d(128, eps=1e-05, momentum=0.1, affine=True, track_running_stats=True)
              (2): GLU()
              (3): Conv2d(64, 64, kernel_size=(3, 3), stride=(1, 1), padding=(1, 1), bias=False)
              (4): BatchNorm2d(64, eps=1e-05, momentum=0.1, affine=True, track_running_stats=True)
            )
          )
        )
        (samesample): Sequential(
          (0): Conv2d(64, 64, kernel_size=(3, 3), stride=(1, 1), padding=(1, 1), bias=False)
          (1): BatchNorm2d(64, eps=1e-05, momentum=0.1, affine=True, track_running_stats=True)
          (2): GLU()
        )
      )
      (1): NEXT_STAGE_G_UP(
        (jointConv): Sequential(
          (0): Conv2d(232, 64, kernel_size=(3, 3), stride=(1, 1), padding=(1, 1), bias=False)
          (1): BatchNorm2d(64, eps=1e-05, momentum=0.1, affine=True, track_running_stats=True)
          (2): GLU()
        )
        (residual): Sequential(
          (0): ResBlock(
            (block): Sequential(
              (0): Conv2d(32, 64, kernel_size=(3, 3), stride=(1, 1), padding=(1, 1), bias=False)
              (1): BatchNorm2d(64, eps=1e-05, momentum=0.1, affine=True, track_running_stats=True)
              (2): GLU()
              (3): Conv2d(32, 32, kernel_size=(3, 3), stride=(1, 1), padding=(1, 1), bias=False)
              (4): BatchNorm2d(32, eps=1e-05, momentum=0.1, affine=True, track_running_stats=True)
            )
          )
          (1): ResBlock(
            (block): Sequential(
              (0): Conv2d(32, 64, kernel_size=(3, 3), stride=(1, 1), padding=(1, 1), bias=False)
              (1): BatchNorm2d(64, eps=1e-05, momentum=0.1, affine=True, track_running_stats=True)
              (2): GLU()
              (3): Conv2d(32, 32, kernel_size=(3, 3), stride=(1, 1), padding=(1, 1), bias=False)
              (4): BatchNorm2d(32, eps=1e-05, momentum=0.1, affine=True, track_running_stats=True)
            )
          )
        )
        (upsample): Sequential(
          (0): Upsample(scale_factor=2.0, mode=nearest)
          (1): Conv2d(32, 32, kernel_size=(3, 3), stride=(1, 1), padding=(1, 1), bias=False)
          (2): BatchNorm2d(32, eps=1e-05, momentum=0.1, affine=True, track_running_stats=True)
          (3): GLU()
        )
      )
    )
    (bg_img_net): ModuleList(
      (0): TO_RGB_LAYER(
        (img): Sequential(
          (0): Conv2d(32, 3, kernel_size=(3, 3), stride=(1, 1), padding=(1, 1), bias=False)
          (1): Tanh()
        )
      )
      (1): TO_RGB_LAYER(
        (img): Sequential(
          (0): Conv2d(16, 3, kernel_size=(3, 3), stride=(1, 1), padding=(1, 1), bias=False)
          (1): Tanh()
        )
      )
    )
    (p_code_init): INIT_STAGE_G(
      (fc): Sequential(
        (0): Linear(in_features=120, out_features=16384, bias=False)
        (1): BatchNorm1d(16384, eps=1e-05, momentum=0.1, affine=True, track_running_stats=True)
        (2): GLU()
      )
      (upsample1): Sequential(
        (0): Upsample(scale_factor=2.0, mode=nearest)
        (1): Conv2d(512, 512, kernel_size=(3, 3), stride=(1, 1), padding=(1, 1), bias=False)
        (2): BatchNorm2d(512, eps=1e-05, momentum=0.1, affine=True, track_running_stats=True)
        (3): GLU()
      )
      (upsample2): Sequential(
        (0): Upsample(scale_factor=2.0, mode=nearest)
        (1): Conv2d(256, 256, kernel_size=(3, 3), stride=(1, 1), padding=(1, 1), bias=False)
        (2): BatchNorm2d(256, eps=1e-05, momentum=0.1, affine=True, track_running_stats=True)
        (3): GLU()
      )
      (upsample3): Sequential(
        (0): Upsample(scale_factor=2.0, mode=nearest)
        (1): Conv2d(128, 128, kernel_size=(3, 3), stride=(1, 1), padding=(1, 1), bias=False)
        (2): BatchNorm2d(128, eps=1e-05, momentum=0.1, affine=True, track_running_stats=True)
        (3): GLU()
      )
    )
    (p_code_net): ModuleList(
      (0): NEXT_STAGE_G_SAME(
        (jointConv): Sequential(
          (0): Conv2d(84, 128, kernel_size=(3, 3), stride=(1, 1), padding=(1, 1), bias=False)
          (1): BatchNorm2d(128, eps=1e-05, momentum=0.1, affine=True, track_running_stats=True)
          (2): GLU()
        )
        (residual): Sequential(
          (0): ResBlock(
            (block): Sequential(
              (0): Conv2d(64, 128, kernel_size=(3, 3), stride=(1, 1), padding=(1, 1), bias=False)
              (1): BatchNorm2d(128, eps=1e-05, momentum=0.1, affine=True, track_running_stats=True)
              (2): GLU()
              (3): Conv2d(64, 64, kernel_size=(3, 3), stride=(1, 1), padding=(1, 1), bias=False)
              (4): BatchNorm2d(64, eps=1e-05, momentum=0.1, affine=True, track_running_stats=True)
            )
          )
          (1): ResBlock(
            (block): Sequential(
              (0): Conv2d(64, 128, kernel_size=(3, 3), stride=(1, 1), padding=(1, 1), bias=False)
              (1): BatchNorm2d(128, eps=1e-05, momentum=0.1, affine=True, track_running_stats=True)
              (2): GLU()
              (3): Conv2d(64, 64, kernel_size=(3, 3), stride=(1, 1), padding=(1, 1), bias=False)
              (4): BatchNorm2d(64, eps=1e-05, momentum=0.1, affine=True, track_running_stats=True)
            )
          )
        )
        (samesample): Sequential(
          (0): Conv2d(64, 64, kernel_size=(3, 3), stride=(1, 1), padding=(1, 1), bias=False)
          (1): BatchNorm2d(64, eps=1e-05, momentum=0.1, affine=True, track_running_stats=True)
          (2): GLU()
        )
      )
      (1): NEXT_STAGE_G_UP(
        (jointConv): Sequential(
          (0): Conv2d(52, 64, kernel_size=(3, 3), stride=(1, 1), padding=(1, 1), bias=False)
          (1): BatchNorm2d(64, eps=1e-05, momentum=0.1, affine=True, track_running_stats=True)
          (2): GLU()
        )
        (residual): Sequential(
          (0): ResBlock(
            (block): Sequential(
              (0): Conv2d(32, 64, kernel_size=(3, 3), stride=(1, 1), padding=(1, 1), bias=False)
              (1): BatchNorm2d(64, eps=1e-05, momentum=0.1, affine=True, track_running_stats=True)
              (2): GLU()
              (3): Conv2d(32, 32, kernel_size=(3, 3), stride=(1, 1), padding=(1, 1), bias=False)
              (4): BatchNorm2d(32, eps=1e-05, momentum=0.1, affine=True, track_running_stats=True)
            )
          )
          (1): ResBlock(
            (block): Sequential(
              (0): Conv2d(32, 64, kernel_size=(3, 3), stride=(1, 1), padding=(1, 1), bias=False)
              (1): BatchNorm2d(64, eps=1e-05, momentum=0.1, affine=True, track_running_stats=True)
              (2): GLU()
              (3): Conv2d(32, 32, kernel_size=(3, 3), stride=(1, 1), padding=(1, 1), bias=False)
              (4): BatchNorm2d(32, eps=1e-05, momentum=0.1, affine=True, track_running_stats=True)
            )
          )
        )
        (upsample): Sequential(
          (0): Upsample(scale_factor=2.0, mode=nearest)
          (1): Conv2d(32, 32, kernel_size=(3, 3), stride=(1, 1), padding=(1, 1), bias=False)
          (2): BatchNorm2d(32, eps=1e-05, momentum=0.1, affine=True, track_running_stats=True)
          (3): GLU()
        )
      )
    )
    (p_fg_net): ModuleList(
      (0): TO_RGB_LAYER(
        (img): Sequential(
          (0): Conv2d(32, 3, kernel_size=(3, 3), stride=(1, 1), padding=(1, 1), bias=False)
          (1): Tanh()
        )
      )
      (1): TO_RGB_LAYER(
        (img): Sequential(
          (0): Conv2d(16, 3, kernel_size=(3, 3), stride=(1, 1), padding=(1, 1), bias=False)
          (1): Tanh()
        )
      )
    )
    (p_mk_net): ModuleList(
      (0): TO_GRAY_LAYER(
        (img): Sequential(
          (0): Conv2d(32, 1, kernel_size=(3, 3), stride=(1, 1), padding=(1, 1), bias=False)
          (1): Sigmoid()
        )
      )
      (1): TO_GRAY_LAYER(
        (img): Sequential(
          (0): Conv2d(16, 1, kernel_size=(3, 3), stride=(1, 1), padding=(1, 1), bias=False)
          (1): Sigmoid()
        )
      )
    )
    (c_code_net): ModuleList(
      (0): NEXT_STAGE_G_SAME(
        (jointConv): Sequential(
          (0): Conv2d(232, 64, kernel_size=(3, 3), stride=(1, 1), padding=(1, 1), bias=False)
          (1): BatchNorm2d(64, eps=1e-05, momentum=0.1, affine=True, track_running_stats=True)
          (2): GLU()
        )
        (residual): Sequential(
          (0): ResBlock(
            (block): Sequential(
              (0): Conv2d(32, 64, kernel_size=(3, 3), stride=(1, 1), padding=(1, 1), bias=False)
              (1): BatchNorm2d(64, eps=1e-05, momentum=0.1, affine=True, track_running_stats=True)
              (2): GLU()
              (3): Conv2d(32, 32, kernel_size=(3, 3), stride=(1, 1), padding=(1, 1), bias=False)
              (4): BatchNorm2d(32, eps=1e-05, momentum=0.1, affine=True, track_running_stats=True)
            )
          )
          (1): ResBlock(
            (block): Sequential(
              (0): Conv2d(32, 64, kernel_size=(3, 3), stride=(1, 1), padding=(1, 1), bias=False)
              (1): BatchNorm2d(64, eps=1e-05, momentum=0.1, affine=True, track_running_stats=True)
              (2): GLU()
              (3): Conv2d(32, 32, kernel_size=(3, 3), stride=(1, 1), padding=(1, 1), bias=False)
              (4): BatchNorm2d(32, eps=1e-05, momentum=0.1, affine=True, track_running_stats=True)
            )
          )
        )
        (samesample): Sequential(
          (0): Conv2d(32, 32, kernel_size=(3, 3), stride=(1, 1), padding=(1, 1), bias=False)
          (1): BatchNorm2d(32, eps=1e-05, momentum=0.1, affine=True, track_running_stats=True)
          (2): GLU()
        )
      )
      (1): NEXT_STAGE_G_SAME(
        (jointConv): Sequential(
          (0): Conv2d(216, 32, kernel_size=(3, 3), stride=(1, 1), padding=(1, 1), bias=False)
          (1): BatchNorm2d(32, eps=1e-05, momentum=0.1, affine=True, track_running_stats=True)
          (2): GLU()
        )
        (residual): Sequential(
          (0): ResBlock(
            (block): Sequential(
              (0): Conv2d(16, 32, kernel_size=(3, 3), stride=(1, 1), padding=(1, 1), bias=False)
              (1): BatchNorm2d(32, eps=1e-05, momentum=0.1, affine=True, track_running_stats=True)
              (2): GLU()
              (3): Conv2d(16, 16, kernel_size=(3, 3), stride=(1, 1), padding=(1, 1), bias=False)
              (4): BatchNorm2d(16, eps=1e-05, momentum=0.1, affine=True, track_running_stats=True)
            )
          )
          (1): ResBlock(
            (block): Sequential(
              (0): Conv2d(16, 32, kernel_size=(3, 3), stride=(1, 1), padding=(1, 1), bias=False)
              (1): BatchNorm2d(32, eps=1e-05, momentum=0.1, affine=True, track_running_stats=True)
              (2): GLU()
              (3): Conv2d(16, 16, kernel_size=(3, 3), stride=(1, 1), padding=(1, 1), bias=False)
              (4): BatchNorm2d(16, eps=1e-05, momentum=0.1, affine=True, track_running_stats=True)
            )
          )
        )
        (samesample): Sequential(
          (0): Conv2d(16, 16, kernel_size=(3, 3), stride=(1, 1), padding=(1, 1), bias=False)
          (1): BatchNorm2d(16, eps=1e-05, momentum=0.1, affine=True, track_running_stats=True)
          (2): GLU()
        )
      )
    )
    (c_fg_net): ModuleList(
      (0): TO_RGB_LAYER(
        (img): Sequential(
          (0): Conv2d(16, 3, kernel_size=(3, 3), stride=(1, 1), padding=(1, 1), bias=False)
          (1): Tanh()
        )
      )
      (1): TO_RGB_LAYER(
        (img): Sequential(
          (0): Conv2d(8, 3, kernel_size=(3, 3), stride=(1, 1), padding=(1, 1), bias=False)
          (1): Tanh()
        )
      )
    )
    (c_mk_net): ModuleList(
      (0): TO_GRAY_LAYER(
        (img): Sequential(
          (0): Conv2d(16, 1, kernel_size=(3, 3), stride=(1, 1), padding=(1, 1), bias=False)
          (1): Sigmoid()
        )
      )
      (1): TO_GRAY_LAYER(
        (img): Sequential(
          (0): Conv2d(8, 1, kernel_size=(3, 3), stride=(1, 1), padding=(1, 1), bias=False)
          (1): Sigmoid()
        )
      )
    )
  )
)
DataParallel(
  (module): D_NET_BG(
    (from_RGB_net): ModuleList(
      (0): Sequential(
        (0): Conv2d(3, 256, kernel_size=(1, 1), stride=(1, 1), bias=False)
        (1): LeakyReLU(negative_slope=0.2, inplace=True)
      )
      (1): Sequential(
        (0): Conv2d(3, 128, kernel_size=(1, 1), stride=(1, 1), bias=False)
        (1): LeakyReLU(negative_slope=0.2, inplace=True)
      )
    )
    (down_net): ModuleList(
      (0): D_NET_BG_BASE(
        (conv): MnetConv(
          (input_conv): Conv2d(256, 512, kernel_size=(3, 3), stride=(1, 1), padding=(1, 1), bias=False)
          (mask_conv): Conv2d(1, 1, kernel_size=(3, 3), stride=(1, 1), padding=(1, 1), bias=False)
        )
        (conv_uncond_logits1): MnetConv(
          (input_conv): Conv2d(512, 1, kernel_size=(3, 3), stride=(1, 1), padding=(1, 1), bias=False)
          (mask_conv): Conv2d(1, 1, kernel_size=(3, 3), stride=(1, 1), padding=(1, 1), bias=False)
        )
        (conv_uncond_logits2): MnetConv(
          (input_conv): Conv2d(512, 1, kernel_size=(3, 3), stride=(1, 1), padding=(1, 1), bias=False)
          (mask_conv): Conv2d(1, 1, kernel_size=(3, 3), stride=(1, 1), padding=(1, 1), bias=False)
        )
      )
      (1): downBlock_mnet(
        (conv): MnetConv(
          (input_conv): Conv2d(128, 256, kernel_size=(3, 3), stride=(1, 1), padding=(1, 1), bias=False)
          (mask_conv): Conv2d(1, 1, kernel_size=(3, 3), stride=(1, 1), padding=(1, 1), bias=False)
        )
      )
    )
  )
)
DataParallel(
  (module): D_NET_PC(
    (from_RGB_net): ModuleList(
      (0): Sequential(
        (0): Conv2d(3, 256, kernel_size=(1, 1), stride=(1, 1), bias=False)
        (1): LeakyReLU(negative_slope=0.2, inplace=True)
      )
      (1): Sequential(
        (0): Conv2d(3, 128, kernel_size=(1, 1), stride=(1, 1), bias=False)
        (1): LeakyReLU(negative_slope=0.2, inplace=True)
      )
    )
    (down_net): ModuleList(
      (0): D_NET_PC_BASE(
        (downblock1): Sequential(
          (0): Conv2d(256, 512, kernel_size=(3, 3), stride=(1, 1), padding=(1, 1), bias=False)
          (1): BatchNorm2d(512, eps=1e-05, momentum=0.1, affine=True, track_running_stats=True)
          (2): LeakyReLU(negative_slope=0.2, inplace=True)
          (3): AvgPool2d(kernel_size=2, stride=2, padding=0)
        )
        (downblock2): Sequential(
          (0): Conv2d(512, 512, kernel_size=(3, 3), stride=(1, 1), padding=(1, 1), bias=False)
          (1): BatchNorm2d(512, eps=1e-05, momentum=0.1, affine=True, track_running_stats=True)
          (2): LeakyReLU(negative_slope=0.2, inplace=True)
          (3): AvgPool2d(kernel_size=2, stride=2, padding=0)
        )
        (downblock3): Sequential(
          (0): Conv2d(512, 512, kernel_size=(3, 3), stride=(1, 1), padding=(1, 1), bias=False)
          (1): BatchNorm2d(512, eps=1e-05, momentum=0.1, affine=True, track_running_stats=True)
          (2): LeakyReLU(negative_slope=0.2, inplace=True)
          (3): AvgPool2d(kernel_size=2, stride=2, padding=0)
        )
        (logits): Sequential(
          (0): Conv2d(512, 20, kernel_size=(4, 4), stride=(4, 4))
        )
        (jointConv): Sequential(
          (0): Conv2d(512, 512, kernel_size=(3, 3), stride=(1, 1), padding=(1, 1), bias=False)
          (1): BatchNorm2d(512, eps=1e-05, momentum=0.1, affine=True, track_running_stats=True)
          (2): LeakyReLU(negative_slope=0.2, inplace=True)
        )
        (uncond_logits): Sequential(
          (0): Conv2d(512, 1, kernel_size=(4, 4), stride=(4, 4))
          (1): Sigmoid()
        )
      )
      (1): Sequential(
        (0): Conv2d(128, 256, kernel_size=(3, 3), stride=(1, 1), padding=(1, 1), bias=False)
        (1): BatchNorm2d(256, eps=1e-05, momentum=0.1, affine=True, track_running_stats=True)
        (2): LeakyReLU(negative_slope=0.2, inplace=True)
        (3): AvgPool2d(kernel_size=2, stride=2, padding=0)
      )
    )
  )
)
DataParallel(
  (module): D_NET_PC(
    (from_RGB_net): ModuleList(
      (0): Sequential(
        (0): Conv2d(3, 256, kernel_size=(1, 1), stride=(1, 1), bias=False)
        (1): LeakyReLU(negative_slope=0.2, inplace=True)
      )
      (1): Sequential(
        (0): Conv2d(3, 128, kernel_size=(1, 1), stride=(1, 1), bias=False)
        (1): LeakyReLU(negative_slope=0.2, inplace=True)
      )
    )
    (down_net): ModuleList(
      (0): D_NET_PC_BASE(
        (downblock1): Sequential(
          (0): Conv2d(256, 512, kernel_size=(3, 3), stride=(1, 1), padding=(1, 1), bias=False)
          (1): BatchNorm2d(512, eps=1e-05, momentum=0.1, affine=True, track_running_stats=True)
          (2): LeakyReLU(negative_slope=0.2, inplace=True)
          (3): AvgPool2d(kernel_size=2, stride=2, padding=0)
        )
        (downblock2): Sequential(
          (0): Conv2d(512, 512, kernel_size=(3, 3), stride=(1, 1), padding=(1, 1), bias=False)
          (1): BatchNorm2d(512, eps=1e-05, momentum=0.1, affine=True, track_running_stats=True)
          (2): LeakyReLU(negative_slope=0.2, inplace=True)
          (3): AvgPool2d(kernel_size=2, stride=2, padding=0)
        )
        (downblock3): Sequential(
          (0): Conv2d(512, 512, kernel_size=(3, 3), stride=(1, 1), padding=(1, 1), bias=False)
          (1): BatchNorm2d(512, eps=1e-05, momentum=0.1, affine=True, track_running_stats=True)
          (2): LeakyReLU(negative_slope=0.2, inplace=True)
          (3): AvgPool2d(kernel_size=2, stride=2, padding=0)
        )
        (logits): Sequential(
          (0): Conv2d(512, 200, kernel_size=(4, 4), stride=(4, 4))
        )
        (jointConv): Sequential(
          (0): Conv2d(512, 512, kernel_size=(3, 3), stride=(1, 1), padding=(1, 1), bias=False)
          (1): BatchNorm2d(512, eps=1e-05, momentum=0.1, affine=True, track_running_stats=True)
          (2): LeakyReLU(negative_slope=0.2, inplace=True)
        )
        (uncond_logits): Sequential(
          (0): Conv2d(512, 1, kernel_size=(4, 4), stride=(4, 4))
          (1): Sigmoid()
        )
      )
      (1): Sequential(
        (0): Conv2d(128, 256, kernel_size=(3, 3), stride=(1, 1), padding=(1, 1), bias=False)
        (1): BatchNorm2d(256, eps=1e-05, momentum=0.1, affine=True, track_running_stats=True)
        (2): LeakyReLU(negative_slope=0.2, inplace=True)
        (3): AvgPool2d(kernel_size=2, stride=2, padding=0)
      )
    )
  )
)
Total filenames:  11788 001.Black_footed_Albatross/Black_Footed_Albatross_0046_18.jpg
Load filenames from: ../../data/birds/images.txt (11788)
/home/yang/.local/lib/python3.6/site-packages/torchvision/transforms/transforms.py:211: UserWarning: The use of the transforms.Scale transform is deprecated, please use transforms.Resize instead.
…
/home/yang/.local/lib/python3.6/site-packages/torchvision/transforms/transforms.py:211: UserWarning: The use of the transforms.Scale transform is deprecated, please use transforms.Resize instead.
  "please use transforms.Resize instead.")
/home/yang/.local/lib/python3.6/site-packages/torchvision/transforms/transforms.py:211: UserWarning: The use of the transforms.Scale transform is deprecated, please use transforms.Resize instead.
  "please use transforms.Resize instead.")
[139/140][368]Loss_D: 14.58 Loss_G: 9.94 Time: 121.96s
Save G/Ds models.
DataParallel(
  (module): G_NET(
    (bg_code_init): INIT_STAGE_G(
      (fc): Sequential(
        (0): Linear(in_features=300, out_features=16384, bias=False)
        (1): BatchNorm1d(16384, eps=1e-05, momentum=0.1, affine=True, track_running_stats=True)
        (2): GLU()
      )
      (upsample1): Sequential(
        (0): Upsample(scale_factor=2.0, mode=nearest)
        (1): Conv2d(512, 512, kernel_size=(3, 3), stride=(1, 1), padding=(1, 1), bias=False)
        (2): BatchNorm2d(512, eps=1e-05, momentum=0.1, affine=True, track_running_stats=True)
        (3): GLU()
      )
      (upsample2): Sequential(
        (0): Upsample(scale_factor=2.0, mode=nearest)
        (1): Conv2d(256, 256, kernel_size=(3, 3), stride=(1, 1), padding=(1, 1), bias=False)
        (2): BatchNorm2d(256, eps=1e-05, momentum=0.1, affine=True, track_running_stats=True)
        (3): GLU()
      )
      (upsample3): Sequential(
        (0): Upsample(scale_factor=2.0, mode=nearest)
        (1): Conv2d(128, 128, kernel_size=(3, 3), stride=(1, 1), padding=(1, 1), bias=False)
        (2): BatchNorm2d(128, eps=1e-05, momentum=0.1, affine=True, track_running_stats=True)
        (3): GLU()
      )
    )
    (bg_code_net): ModuleList(
      (0): NEXT_STAGE_G_SAME(
        (jointConv): Sequential(
          (0): Conv2d(264, 128, kernel_size=(3, 3), stride=(1, 1), padding=(1, 1), bias=False)
          (1): BatchNorm2d(128, eps=1e-05, momentum=0.1, affine=True, track_running_stats=True)
          (2): GLU()
        )
        (residual): Sequential(
          (0): ResBlock(
            (block): Sequential(
              (0): Conv2d(64, 128, kernel_size=(3, 3), stride=(1, 1), padding=(1, 1), bias=False)
              (1): BatchNorm2d(128, eps=1e-05, momentum=0.1, affine=True, track_running_stats=True)
              (2): GLU()
              (3): Conv2d(64, 64, kernel_size=(3, 3), stride=(1, 1), padding=(1, 1), bias=False)
              (4): BatchNorm2d(64, eps=1e-05, momentum=0.1, affine=True, track_running_stats=True)
            )
          )
          (1): ResBlock(
            (block): Sequential(
              (0): Conv2d(64, 128, kernel_size=(3, 3), stride=(1, 1), padding=(1, 1), bias=False)
              (1): BatchNorm2d(128, eps=1e-05, momentum=0.1, affine=True, track_running_stats=True)
              (2): GLU()
              (3): Conv2d(64, 64, kernel_size=(3, 3), stride=(1, 1), padding=(1, 1), bias=False)
              (4): BatchNorm2d(64, eps=1e-05, momentum=0.1, affine=True, track_running_stats=True)
            )
          )
        )
        (samesample): Sequential(
          (0): Conv2d(64, 64, kernel_size=(3, 3), stride=(1, 1), padding=(1, 1), bias=False)
          (1): BatchNorm2d(64, eps=1e-05, momentum=0.1, affine=True, track_running_stats=True)
          (2): GLU()
        )
      )
      (1): NEXT_STAGE_G_UP(
        (jointConv): Sequential(
          (0): Conv2d(232, 64, kernel_size=(3, 3), stride=(1, 1), padding=(1, 1), bias=False)
          (1): BatchNorm2d(64, eps=1e-05, momentum=0.1, affine=True, track_running_stats=True)
          (2): GLU()
        )
        (residual): Sequential(
          (0): ResBlock(
            (block): Sequential(
              (0): Conv2d(32, 64, kernel_size=(3, 3), stride=(1, 1), padding=(1, 1), bias=False)
              (1): BatchNorm2d(64, eps=1e-05, momentum=0.1, affine=True, track_running_stats=True)
              (2): GLU()
              (3): Conv2d(32, 32, kernel_size=(3, 3), stride=(1, 1), padding=(1, 1), bias=False)
              (4): BatchNorm2d(32, eps=1e-05, momentum=0.1, affine=True, track_running_stats=True)
            )
          )
          (1): ResBlock(
            (block): Sequential(
              (0): Conv2d(32, 64, kernel_size=(3, 3), stride=(1, 1), padding=(1, 1), bias=False)
              (1): BatchNorm2d(64, eps=1e-05, momentum=0.1, affine=True, track_running_stats=True)
              (2): GLU()
              (3): Conv2d(32, 32, kernel_size=(3, 3), stride=(1, 1), padding=(1, 1), bias=False)
              (4): BatchNorm2d(32, eps=1e-05, momentum=0.1, affine=True, track_running_stats=True)
            )
          )
        )
        (upsample): Sequential(
          (0): Upsample(scale_factor=2.0, mode=nearest)
          (1): Conv2d(32, 32, kernel_size=(3, 3), stride=(1, 1), padding=(1, 1), bias=False)
          (2): BatchNorm2d(32, eps=1e-05, momentum=0.1, affine=True, track_running_stats=True)
          (3): GLU()
        )
      )
      (2): NEXT_STAGE_G_UP(
        (jointConv): Sequential(
          (0): Conv2d(216, 32, kernel_size=(3, 3), stride=(1, 1), padding=(1, 1), bias=False)
          (1): BatchNorm2d(32, eps=1e-05, momentum=0.1, affine=True, track_running_stats=True)
          (2): GLU()
        )
        (residual): Sequential(
          (0): ResBlock(
            (block): Sequential(
              (0): Conv2d(16, 32, kernel_size=(3, 3), stride=(1, 1), padding=(1, 1), bias=False)
              (1): BatchNorm2d(32, eps=1e-05, momentum=0.1, affine=True, track_running_stats=True)
              (2): GLU()
              (3): Conv2d(16, 16, kernel_size=(3, 3), stride=(1, 1), padding=(1, 1), bias=False)
              (4): BatchNorm2d(16, eps=1e-05, momentum=0.1, affine=True, track_running_stats=True)
            )
          )
          (1): ResBlock(
            (block): Sequential(
              (0): Conv2d(16, 32, kernel_size=(3, 3), stride=(1, 1), padding=(1, 1), bias=False)
              (1): BatchNorm2d(32, eps=1e-05, momentum=0.1, affine=True, track_running_stats=True)
              (2): GLU()
              (3): Conv2d(16, 16, kernel_size=(3, 3), stride=(1, 1), padding=(1, 1), bias=False)
              (4): BatchNorm2d(16, eps=1e-05, momentum=0.1, affine=True, track_running_stats=True)
            )
          )
        )
        (upsample): Sequential(
          (0): Upsample(scale_factor=2.0, mode=nearest)
          (1): Conv2d(16, 16, kernel_size=(3, 3), stride=(1, 1), padding=(1, 1), bias=False)
          (2): BatchNorm2d(16, eps=1e-05, momentum=0.1, affine=True, track_running_stats=True)
          (3): GLU()
        )
      )
    )
    (bg_img_net): ModuleList(
      (0): TO_RGB_LAYER(
        (img): Sequential(
          (0): Conv2d(32, 3, kernel_size=(3, 3), stride=(1, 1), padding=(1, 1), bias=False)
          (1): Tanh()
        )
      )
      (1): TO_RGB_LAYER(
        (img): Sequential(
          (0): Conv2d(16, 3, kernel_size=(3, 3), stride=(1, 1), padding=(1, 1), bias=False)
          (1): Tanh()
        )
      )
      (2): TO_RGB_LAYER(
        (img): Sequential(
          (0): Conv2d(8, 3, kernel_size=(3, 3), stride=(1, 1), padding=(1, 1), bias=False)
          (1): Tanh()
        )
      )
    )
    (p_code_init): INIT_STAGE_G(
      (fc): Sequential(
        (0): Linear(in_features=120, out_features=16384, bias=False)
        (1): BatchNorm1d(16384, eps=1e-05, momentum=0.1, affine=True, track_running_stats=True)
        (2): GLU()
      )
      (upsample1): Sequential(
        (0): Upsample(scale_factor=2.0, mode=nearest)
        (1): Conv2d(512, 512, kernel_size=(3, 3), stride=(1, 1), padding=(1, 1), bias=False)
        (2): BatchNorm2d(512, eps=1e-05, momentum=0.1, affine=True, track_running_stats=True)
        (3): GLU()
      )
      (upsample2): Sequential(
        (0): Upsample(scale_factor=2.0, mode=nearest)
        (1): Conv2d(256, 256, kernel_size=(3, 3), stride=(1, 1), padding=(1, 1), bias=False)
        (2): BatchNorm2d(256, eps=1e-05, momentum=0.1, affine=True, track_running_stats=True)
        (3): GLU()
      )
      (upsample3): Sequential(
        (0): Upsample(scale_factor=2.0, mode=nearest)
        (1): Conv2d(128, 128, kernel_size=(3, 3), stride=(1, 1), padding=(1, 1), bias=False)
        (2): BatchNorm2d(128, eps=1e-05, momentum=0.1, affine=True, track_running_stats=True)
        (3): GLU()
      )
    )
    (p_code_net): ModuleList(
      (0): NEXT_STAGE_G_SAME(
        (jointConv): Sequential(
          (0): Conv2d(84, 128, kernel_size=(3, 3), stride=(1, 1), padding=(1, 1), bias=False)
          (1): BatchNorm2d(128, eps=1e-05, momentum=0.1, affine=True, track_running_stats=True)
          (2): GLU()
        )
        (residual): Sequential(
          (0): ResBlock(
            (block): Sequential(
              (0): Conv2d(64, 128, kernel_size=(3, 3), stride=(1, 1), padding=(1, 1), bias=False)
              (1): BatchNorm2d(128, eps=1e-05, momentum=0.1, affine=True, track_running_stats=True)
              (2): GLU()
              (3): Conv2d(64, 64, kernel_size=(3, 3), stride=(1, 1), padding=(1, 1), bias=False)
              (4): BatchNorm2d(64, eps=1e-05, momentum=0.1, affine=True, track_running_stats=True)
            )
          )
          (1): ResBlock(
            (block): Sequential(
              (0): Conv2d(64, 128, kernel_size=(3, 3), stride=(1, 1), padding=(1, 1), bias=False)
              (1): BatchNorm2d(128, eps=1e-05, momentum=0.1, affine=True, track_running_stats=True)
              (2): GLU()
              (3): Conv2d(64, 64, kernel_size=(3, 3), stride=(1, 1), padding=(1, 1), bias=False)
              (4): BatchNorm2d(64, eps=1e-05, momentum=0.1, affine=True, track_running_stats=True)
            )
          )
        )
        (samesample): Sequential(
          (0): Conv2d(64, 64, kernel_size=(3, 3), stride=(1, 1), padding=(1, 1), bias=False)
          (1): BatchNorm2d(64, eps=1e-05, momentum=0.1, affine=True, track_running_stats=True)
          (2): GLU()
        )
      )
      (1): NEXT_STAGE_G_UP(
        (jointConv): Sequential(
          (0): Conv2d(52, 64, kernel_size=(3, 3), stride=(1, 1), padding=(1, 1), bias=False)
          (1): BatchNorm2d(64, eps=1e-05, momentum=0.1, affine=True, track_running_stats=True)
          (2): GLU()
        )
        (residual): Sequential(
          (0): ResBlock(
            (block): Sequential(
              (0): Conv2d(32, 64, kernel_size=(3, 3), stride=(1, 1), padding=(1, 1), bias=False)
              (1): BatchNorm2d(64, eps=1e-05, momentum=0.1, affine=True, track_running_stats=True)
              (2): GLU()
              (3): Conv2d(32, 32, kernel_size=(3, 3), stride=(1, 1), padding=(1, 1), bias=False)
              (4): BatchNorm2d(32, eps=1e-05, momentum=0.1, affine=True, track_running_stats=True)
            )
          )
          (1): ResBlock(
            (block): Sequential(
              (0): Conv2d(32, 64, kernel_size=(3, 3), stride=(1, 1), padding=(1, 1), bias=False)
              (1): BatchNorm2d(64, eps=1e-05, momentum=0.1, affine=True, track_running_stats=True)
              (2): GLU()
              (3): Conv2d(32, 32, kernel_size=(3, 3), stride=(1, 1), padding=(1, 1), bias=False)
              (4): BatchNorm2d(32, eps=1e-05, momentum=0.1, affine=True, track_running_stats=True)
            )
          )
        )
        (upsample): Sequential(
          (0): Upsample(scale_factor=2.0, mode=nearest)
          (1): Conv2d(32, 32, kernel_size=(3, 3), stride=(1, 1), padding=(1, 1), bias=False)
          (2): BatchNorm2d(32, eps=1e-05, momentum=0.1, affine=True, track_running_stats=True)
          (3): GLU()
        )
      )
      (2): NEXT_STAGE_G_UP(
        (jointConv): Sequential(
          (0): Conv2d(36, 32, kernel_size=(3, 3), stride=(1, 1), padding=(1, 1), bias=False)
          (1): BatchNorm2d(32, eps=1e-05, momentum=0.1, affine=True, track_running_stats=True)
          (2): GLU()
        )
        (residual): Sequential(
          (0): ResBlock(
            (block): Sequential(
              (0): Conv2d(16, 32, kernel_size=(3, 3), stride=(1, 1), padding=(1, 1), bias=False)
              (1): BatchNorm2d(32, eps=1e-05, momentum=0.1, affine=True, track_running_stats=True)
              (2): GLU()
              (3): Conv2d(16, 16, kernel_size=(3, 3), stride=(1, 1), padding=(1, 1), bias=False)
              (4): BatchNorm2d(16, eps=1e-05, momentum=0.1, affine=True, track_running_stats=True)
            )
          )
          (1): ResBlock(
            (block): Sequential(
              (0): Conv2d(16, 32, kernel_size=(3, 3), stride=(1, 1), padding=(1, 1), bias=False)
              (1): BatchNorm2d(32, eps=1e-05, momentum=0.1, affine=True, track_running_stats=True)
              (2): GLU()
              (3): Conv2d(16, 16, kernel_size=(3, 3), stride=(1, 1), padding=(1, 1), bias=False)
              (4): BatchNorm2d(16, eps=1e-05, momentum=0.1, affine=True, track_running_stats=True)
            )
          )
        )
        (upsample): Sequential(
          (0): Upsample(scale_factor=2.0, mode=nearest)
          (1): Conv2d(16, 16, kernel_size=(3, 3), stride=(1, 1), padding=(1, 1), bias=False)
          (2): BatchNorm2d(16, eps=1e-05, momentum=0.1, affine=True, track_running_stats=True)
          (3): GLU()
        )
      )
    )
    (p_fg_net): ModuleList(
      (0): TO_RGB_LAYER(
        (img): Sequential(
          (0): Conv2d(32, 3, kernel_size=(3, 3), stride=(1, 1), padding=(1, 1), bias=False)
          (1): Tanh()
        )
      )
      (1): TO_RGB_LAYER(
        (img): Sequential(
          (0): Conv2d(16, 3, kernel_size=(3, 3), stride=(1, 1), padding=(1, 1), bias=False)
          (1): Tanh()
        )
      )
      (2): TO_RGB_LAYER(
        (img): Sequential(
          (0): Conv2d(8, 3, kernel_size=(3, 3), stride=(1, 1), padding=(1, 1), bias=False)
          (1): Tanh()
        )
      )
    )
    (p_mk_net): ModuleList(
      (0): TO_GRAY_LAYER(
        (img): Sequential(
          (0): Conv2d(32, 1, kernel_size=(3, 3), stride=(1, 1), padding=(1, 1), bias=False)
          (1): Sigmoid()
        )
      )
      (1): TO_GRAY_LAYER(
        (img): Sequential(
          (0): Conv2d(16, 1, kernel_size=(3, 3), stride=(1, 1), padding=(1, 1), bias=False)
          (1): Sigmoid()
        )
      )
      (2): TO_GRAY_LAYER(
        (img): Sequential(
          (0): Conv2d(8, 1, kernel_size=(3, 3), stride=(1, 1), padding=(1, 1), bias=False)
          (1): Sigmoid()
        )
      )
    )
    (c_code_net): ModuleList(
      (0): NEXT_STAGE_G_SAME(
        (jointConv): Sequential(
          (0): Conv2d(232, 64, kernel_size=(3, 3), stride=(1, 1), padding=(1, 1), bias=False)
          (1): BatchNorm2d(64, eps=1e-05, momentum=0.1, affine=True, track_running_stats=True)
          (2): GLU()
        )
        (residual): Sequential(
          (0): ResBlock(
            (block): Sequential(
              (0): Conv2d(32, 64, kernel_size=(3, 3), stride=(1, 1), padding=(1, 1), bias=False)
              (1): BatchNorm2d(64, eps=1e-05, momentum=0.1, affine=True, track_running_stats=True)
              (2): GLU()
              (3): Conv2d(32, 32, kernel_size=(3, 3), stride=(1, 1), padding=(1, 1), bias=False)
              (4): BatchNorm2d(32, eps=1e-05, momentum=0.1, affine=True, track_running_stats=True)
            )
          )
          (1): ResBlock(
            (block): Sequential(
              (0): Conv2d(32, 64, kernel_size=(3, 3), stride=(1, 1), padding=(1, 1), bias=False)
              (1): BatchNorm2d(64, eps=1e-05, momentum=0.1, affine=True, track_running_stats=True)
              (2): GLU()
              (3): Conv2d(32, 32, kernel_size=(3, 3), stride=(1, 1), padding=(1, 1), bias=False)
              (4): BatchNorm2d(32, eps=1e-05, momentum=0.1, affine=True, track_running_stats=True)
            )
          )
        )
        (samesample): Sequential(
          (0): Conv2d(32, 32, kernel_size=(3, 3), stride=(1, 1), padding=(1, 1), bias=False)
          (1): BatchNorm2d(32, eps=1e-05, momentum=0.1, affine=True, track_running_stats=True)
          (2): GLU()
        )
      )
      (1): NEXT_STAGE_G_SAME(
        (jointConv): Sequential(
          (0): Conv2d(216, 32, kernel_size=(3, 3), stride=(1, 1), padding=(1, 1), bias=False)
          (1): BatchNorm2d(32, eps=1e-05, momentum=0.1, affine=True, track_running_stats=True)
          (2): GLU()
        )
        (residual): Sequential(
          (0): ResBlock(
            (block): Sequential(
              (0): Conv2d(16, 32, kernel_size=(3, 3), stride=(1, 1), padding=(1, 1), bias=False)
              (1): BatchNorm2d(32, eps=1e-05, momentum=0.1, affine=True, track_running_stats=True)
              (2): GLU()
              (3): Conv2d(16, 16, kernel_size=(3, 3), stride=(1, 1), padding=(1, 1), bias=False)
              (4): BatchNorm2d(16, eps=1e-05, momentum=0.1, affine=True, track_running_stats=True)
            )
          )
          (1): ResBlock(
            (block): Sequential(
              (0): Conv2d(16, 32, kernel_size=(3, 3), stride=(1, 1), padding=(1, 1), bias=False)
              (1): BatchNorm2d(32, eps=1e-05, momentum=0.1, affine=True, track_running_stats=True)
              (2): GLU()
              (3): Conv2d(16, 16, kernel_size=(3, 3), stride=(1, 1), padding=(1, 1), bias=False)
              (4): BatchNorm2d(16, eps=1e-05, momentum=0.1, affine=True, track_running_stats=True)
            )
          )
        )
        (samesample): Sequential(
          (0): Conv2d(16, 16, kernel_size=(3, 3), stride=(1, 1), padding=(1, 1), bias=False)
          (1): BatchNorm2d(16, eps=1e-05, momentum=0.1, affine=True, track_running_stats=True)
          (2): GLU()
        )
      )
      (2): NEXT_STAGE_G_SAME(
        (jointConv): Sequential(
          (0): Conv2d(208, 16, kernel_size=(3, 3), stride=(1, 1), padding=(1, 1), bias=False)
          (1): BatchNorm2d(16, eps=1e-05, momentum=0.1, affine=True, track_running_stats=True)
          (2): GLU()
        )
        (residual): Sequential(
          (0): ResBlock(
            (block): Sequential(
              (0): Conv2d(8, 16, kernel_size=(3, 3), stride=(1, 1), padding=(1, 1), bias=False)
              (1): BatchNorm2d(16, eps=1e-05, momentum=0.1, affine=True, track_running_stats=True)
              (2): GLU()
              (3): Conv2d(8, 8, kernel_size=(3, 3), stride=(1, 1), padding=(1, 1), bias=False)
              (4): BatchNorm2d(8, eps=1e-05, momentum=0.1, affine=True, track_running_stats=True)
            )
          )
          (1): ResBlock(
            (block): Sequential(
              (0): Conv2d(8, 16, kernel_size=(3, 3), stride=(1, 1), padding=(1, 1), bias=False)
              (1): BatchNorm2d(16, eps=1e-05, momentum=0.1, affine=True, track_running_stats=True)
              (2): GLU()
              (3): Conv2d(8, 8, kernel_size=(3, 3), stride=(1, 1), padding=(1, 1), bias=False)
              (4): BatchNorm2d(8, eps=1e-05, momentum=0.1, affine=True, track_running_stats=True)
            )
          )
        )
        (samesample): Sequential(
          (0): Conv2d(8, 8, kernel_size=(3, 3), stride=(1, 1), padding=(1, 1), bias=False)
          (1): BatchNorm2d(8, eps=1e-05, momentum=0.1, affine=True, track_running_stats=True)
          (2): GLU()
        )
      )
    )
    (c_fg_net): ModuleList(
      (0): TO_RGB_LAYER(
        (img): Sequential(
          (0): Conv2d(16, 3, kernel_size=(3, 3), stride=(1, 1), padding=(1, 1), bias=False)
          (1): Tanh()
        )
      )
      (1): TO_RGB_LAYER(
        (img): Sequential(
          (0): Conv2d(8, 3, kernel_size=(3, 3), stride=(1, 1), padding=(1, 1), bias=False)
          (1): Tanh()
        )
      )
      (2): TO_RGB_LAYER(
        (img): Sequential(
          (0): Conv2d(4, 3, kernel_size=(3, 3), stride=(1, 1), padding=(1, 1), bias=False)
          (1): Tanh()
        )
      )
    )
    (c_mk_net): ModuleList(
      (0): TO_GRAY_LAYER(
        (img): Sequential(
          (0): Conv2d(16, 1, kernel_size=(3, 3), stride=(1, 1), padding=(1, 1), bias=False)
          (1): Sigmoid()
        )
      )
      (1): TO_GRAY_LAYER(
        (img): Sequential(
          (0): Conv2d(8, 1, kernel_size=(3, 3), stride=(1, 1), padding=(1, 1), bias=False)
          (1): Sigmoid()
        )
      )
      (2): TO_GRAY_LAYER(
        (img): Sequential(
          (0): Conv2d(4, 1, kernel_size=(3, 3), stride=(1, 1), padding=(1, 1), bias=False)
          (1): Sigmoid()
        )
      )
    )
  )
)
DataParallel(
  (module): D_NET_BG(
    (from_RGB_net): ModuleList(
      (0): Sequential(
        (0): Conv2d(3, 256, kernel_size=(1, 1), stride=(1, 1), bias=False)
        (1): LeakyReLU(negative_slope=0.2, inplace=True)
      )
      (1): Sequential(
        (0): Conv2d(3, 128, kernel_size=(1, 1), stride=(1, 1), bias=False)
        (1): LeakyReLU(negative_slope=0.2, inplace=True)
      )
      (2): Sequential(
        (0): Conv2d(3, 128, kernel_size=(1, 1), stride=(1, 1), bias=False)
        (1): LeakyReLU(negative_slope=0.2, inplace=True)
      )
    )
    (down_net): ModuleList(
      (0): D_NET_BG_BASE(
        (conv): MnetConv(
          (input_conv): Conv2d(256, 512, kernel_size=(3, 3), stride=(1, 1), padding=(1, 1), bias=False)
          (mask_conv): Conv2d(1, 1, kernel_size=(3, 3), stride=(1, 1), padding=(1, 1), bias=False)
        )
        (conv_uncond_logits1): MnetConv(
          (input_conv): Conv2d(512, 1, kernel_size=(3, 3), stride=(1, 1), padding=(1, 1), bias=False)
          (mask_conv): Conv2d(1, 1, kernel_size=(3, 3), stride=(1, 1), padding=(1, 1), bias=False)
        )
        (conv_uncond_logits2): MnetConv(
          (input_conv): Conv2d(512, 1, kernel_size=(3, 3), stride=(1, 1), padding=(1, 1), bias=False)
          (mask_conv): Conv2d(1, 1, kernel_size=(3, 3), stride=(1, 1), padding=(1, 1), bias=False)
        )
      )
      (1): downBlock_mnet(
        (conv): MnetConv(
          (input_conv): Conv2d(128, 256, kernel_size=(3, 3), stride=(1, 1), padding=(1, 1), bias=False)
          (mask_conv): Conv2d(1, 1, kernel_size=(3, 3), stride=(1, 1), padding=(1, 1), bias=False)
        )
      )
      (2): downBlock_mnet(
        (conv): MnetConv(
          (input_conv): Conv2d(128, 256, kernel_size=(3, 3), stride=(1, 1), padding=(1, 1), bias=False)
          (mask_conv): Conv2d(1, 1, kernel_size=(3, 3), stride=(1, 1), padding=(1, 1), bias=False)
        )
      )
    )
  )
)
DataParallel(
  (module): D_NET_PC(
    (from_RGB_net): ModuleList(
      (0): Sequential(
        (0): Conv2d(3, 256, kernel_size=(1, 1), stride=(1, 1), bias=False)
        (1): LeakyReLU(negative_slope=0.2, inplace=True)
      )
      (1): Sequential(
        (0): Conv2d(3, 128, kernel_size=(1, 1), stride=(1, 1), bias=False)
        (1): LeakyReLU(negative_slope=0.2, inplace=True)
      )
      (2): Sequential(
        (0): Conv2d(3, 128, kernel_size=(1, 1), stride=(1, 1), bias=False)
        (1): LeakyReLU(negative_slope=0.2, inplace=True)
      )
    )
    (down_net): ModuleList(
      (0): D_NET_PC_BASE(
        (downblock1): Sequential(
          (0): Conv2d(256, 512, kernel_size=(3, 3), stride=(1, 1), padding=(1, 1), bias=False)
          (1): BatchNorm2d(512, eps=1e-05, momentum=0.1, affine=True, track_running_stats=True)
          (2): LeakyReLU(negative_slope=0.2, inplace=True)
          (3): AvgPool2d(kernel_size=2, stride=2, padding=0)
        )
        (downblock2): Sequential(
          (0): Conv2d(512, 512, kernel_size=(3, 3), stride=(1, 1), padding=(1, 1), bias=False)
          (1): BatchNorm2d(512, eps=1e-05, momentum=0.1, affine=True, track_running_stats=True)
          (2): LeakyReLU(negative_slope=0.2, inplace=True)
          (3): AvgPool2d(kernel_size=2, stride=2, padding=0)
        )
        (downblock3): Sequential(
          (0): Conv2d(512, 512, kernel_size=(3, 3), stride=(1, 1), padding=(1, 1), bias=False)
          (1): BatchNorm2d(512, eps=1e-05, momentum=0.1, affine=True, track_running_stats=True)
          (2): LeakyReLU(negative_slope=0.2, inplace=True)
          (3): AvgPool2d(kernel_size=2, stride=2, padding=0)
        )
        (logits): Sequential(
          (0): Conv2d(512, 20, kernel_size=(4, 4), stride=(4, 4))
        )
        (jointConv): Sequential(
          (0): Conv2d(512, 512, kernel_size=(3, 3), stride=(1, 1), padding=(1, 1), bias=False)
          (1): BatchNorm2d(512, eps=1e-05, momentum=0.1, affine=True, track_running_stats=True)
          (2): LeakyReLU(negative_slope=0.2, inplace=True)
        )
        (uncond_logits): Sequential(
          (0): Conv2d(512, 1, kernel_size=(4, 4), stride=(4, 4))
          (1): Sigmoid()
        )
      )
      (1): Sequential(
        (0): Conv2d(128, 256, kernel_size=(3, 3), stride=(1, 1), padding=(1, 1), bias=False)
        (1): BatchNorm2d(256, eps=1e-05, momentum=0.1, affine=True, track_running_stats=True)
        (2): LeakyReLU(negative_slope=0.2, inplace=True)
        (3): AvgPool2d(kernel_size=2, stride=2, padding=0)
      )
      (2): Sequential(
        (0): Conv2d(128, 256, kernel_size=(3, 3), stride=(1, 1), padding=(1, 1), bias=False)
        (1): BatchNorm2d(256, eps=1e-05, momentum=0.1, affine=True, track_running_stats=True)
        (2): LeakyReLU(negative_slope=0.2, inplace=True)
        (3): AvgPool2d(kernel_size=2, stride=2, padding=0)
      )
    )
  )
)
DataParallel(
  (module): D_NET_PC(
    (from_RGB_net): ModuleList(
      (0): Sequential(
        (0): Conv2d(3, 256, kernel_size=(1, 1), stride=(1, 1), bias=False)
        (1): LeakyReLU(negative_slope=0.2, inplace=True)
      )
      (1): Sequential(
        (0): Conv2d(3, 128, kernel_size=(1, 1), stride=(1, 1), bias=False)
        (1): LeakyReLU(negative_slope=0.2, inplace=True)
      )
      (2): Sequential(
        (0): Conv2d(3, 128, kernel_size=(1, 1), stride=(1, 1), bias=False)
        (1): LeakyReLU(negative_slope=0.2, inplace=True)
      )
    )
    (down_net): ModuleList(
      (0): D_NET_PC_BASE(
        (downblock1): Sequential(
          (0): Conv2d(256, 512, kernel_size=(3, 3), stride=(1, 1), padding=(1, 1), bias=False)
          (1): BatchNorm2d(512, eps=1e-05, momentum=0.1, affine=True, track_running_stats=True)
          (2): LeakyReLU(negative_slope=0.2, inplace=True)
          (3): AvgPool2d(kernel_size=2, stride=2, padding=0)
        )
        (downblock2): Sequential(
          (0): Conv2d(512, 512, kernel_size=(3, 3), stride=(1, 1), padding=(1, 1), bias=False)
          (1): BatchNorm2d(512, eps=1e-05, momentum=0.1, affine=True, track_running_stats=True)
          (2): LeakyReLU(negative_slope=0.2, inplace=True)
          (3): AvgPool2d(kernel_size=2, stride=2, padding=0)
        )
        (downblock3): Sequential(
          (0): Conv2d(512, 512, kernel_size=(3, 3), stride=(1, 1), padding=(1, 1), bias=False)
          (1): BatchNorm2d(512, eps=1e-05, momentum=0.1, affine=True, track_running_stats=True)
          (2): LeakyReLU(negative_slope=0.2, inplace=True)
          (3): AvgPool2d(kernel_size=2, stride=2, padding=0)
        )
        (logits): Sequential(
          (0): Conv2d(512, 200, kernel_size=(4, 4), stride=(4, 4))
        )
        (jointConv): Sequential(
          (0): Conv2d(512, 512, kernel_size=(3, 3), stride=(1, 1), padding=(1, 1), bias=False)
          (1): BatchNorm2d(512, eps=1e-05, momentum=0.1, affine=True, track_running_stats=True)
          (2): LeakyReLU(negative_slope=0.2, inplace=True)
        )
        (uncond_logits): Sequential(
          (0): Conv2d(512, 1, kernel_size=(4, 4), stride=(4, 4))
          (1): Sigmoid()
        )
      )
      (1): Sequential(
        (0): Conv2d(128, 256, kernel_size=(3, 3), stride=(1, 1), padding=(1, 1), bias=False)
        (1): BatchNorm2d(256, eps=1e-05, momentum=0.1, affine=True, track_running_stats=True)
        (2): LeakyReLU(negative_slope=0.2, inplace=True)
        (3): AvgPool2d(kernel_size=2, stride=2, padding=0)
      )
      (2): Sequential(
        (0): Conv2d(128, 256, kernel_size=(3, 3), stride=(1, 1), padding=(1, 1), bias=False)
        (1): BatchNorm2d(256, eps=1e-05, momentum=0.1, affine=True, track_running_stats=True)
        (2): LeakyReLU(negative_slope=0.2, inplace=True)
        (3): AvgPool2d(kernel_size=2, stride=2, padding=0)
      )
    )
  )
)
Total filenames:  11788 001.Black_footed_Albatross/Black_Footed_Albatross_0046_18.jpg
Load filenames from: ../../data/birds/images.txt (11788)
/home/yang/.local/lib/python3.6/site-packages/torchvision/transforms/transforms.py:211: UserWarning: The use of the transforms.Scale transform is deprecated, please use transforms.Resize instead.
…
