…
  "please use transforms.Resize instead.")
Total filenames:  11788 001.Black_footed_Albatross/Black_Footed_Albatross_0046_18.jpg
Load filenames from: ../../data/birds/images.txt (11788)
/home/yang/b4_finegan/code/trainer.py:48: UserWarning: nn.init.orthogonal is now deprecated in favor of nn.init.orthogonal_.
  nn.init.orthogonal(m.weight.data, 1.0)
/home/yang/b4_finegan/code/trainer.py:43: UserWarning: nn.init.orthogonal is now deprecated in favor of nn.init.orthogonal_.
  nn.init.orthogonal(m.weight.data, 1.0)
DataParallel(
  (module): G_NET(
    (h_net1_bg): INIT_STAGE_G(
      (fc): Sequential(
        (0): Linear(in_features=300, out_features=32768, bias=False)
        (1): BatchNorm1d(32768, eps=1e-05, momentum=0.1, affine=True, track_running_stats=True)
        (2): GLU()
      )
      (upsample1): Sequential(
        (0): Upsample(scale_factor=2.0, mode=nearest)
        (1): Conv2d(1024, 1024, kernel_size=(3, 3), stride=(1, 1), padding=(1, 1), bias=False)
        (2): BatchNorm2d(1024, eps=1e-05, momentum=0.1, affine=True, track_running_stats=True)
        (3): GLU()
      )
      (upsample2): Sequential(
        (0): Upsample(scale_factor=2.0, mode=nearest)
        (1): Conv2d(512, 512, kernel_size=(3, 3), stride=(1, 1), padding=(1, 1), bias=False)
        (2): BatchNorm2d(512, eps=1e-05, momentum=0.1, affine=True, track_running_stats=True)
        (3): GLU()
      )
      (upsample3): Sequential(
        (0): Upsample(scale_factor=2.0, mode=nearest)
        (1): Conv2d(256, 256, kernel_size=(3, 3), stride=(1, 1), padding=(1, 1), bias=False)
        (2): BatchNorm2d(256, eps=1e-05, momentum=0.1, affine=True, track_running_stats=True)
        (3): GLU()
      )
      (upsample4): Sequential(
        (0): Upsample(scale_factor=2.0, mode=nearest)
        (1): Conv2d(128, 128, kernel_size=(3, 3), stride=(1, 1), padding=(1, 1), bias=False)
        (2): BatchNorm2d(128, eps=1e-05, momentum=0.1, affine=True, track_running_stats=True)
        (3): GLU()
      )
      (upsample5): Sequential(
        (0): Upsample(scale_factor=2.0, mode=nearest)
        (1): Conv2d(64, 128, kernel_size=(3, 3), stride=(1, 1), padding=(1, 1), bias=False)
        (2): BatchNorm2d(128, eps=1e-05, momentum=0.1, affine=True, track_running_stats=True)
        (3): GLU()
      )
    )
    (img_net1_bg): GET_IMAGE_G(
      (img): Sequential(
        (0): Conv2d(64, 3, kernel_size=(3, 3), stride=(1, 1), padding=(1, 1), bias=False)
        (1): Tanh()
      )
    )
    (h_net1): INIT_STAGE_G(
      (fc): Sequential(
        (0): Linear(in_features=120, out_features=32768, bias=False)
        (1): BatchNorm1d(32768, eps=1e-05, momentum=0.1, affine=True, track_running_stats=True)
        (2): GLU()
      )
      (upsample1): Sequential(
        (0): Upsample(scale_factor=2.0, mode=nearest)
        (1): Conv2d(1024, 1024, kernel_size=(3, 3), stride=(1, 1), padding=(1, 1), bias=False)
        (2): BatchNorm2d(1024, eps=1e-05, momentum=0.1, affine=True, track_running_stats=True)
        (3): GLU()
      )
      (upsample2): Sequential(
        (0): Upsample(scale_factor=2.0, mode=nearest)
        (1): Conv2d(512, 512, kernel_size=(3, 3), stride=(1, 1), padding=(1, 1), bias=False)
        (2): BatchNorm2d(512, eps=1e-05, momentum=0.1, affine=True, track_running_stats=True)
        (3): GLU()
      )
      (upsample3): Sequential(
        (0): Upsample(scale_factor=2.0, mode=nearest)
        (1): Conv2d(256, 256, kernel_size=(3, 3), stride=(1, 1), padding=(1, 1), bias=False)
        (2): BatchNorm2d(256, eps=1e-05, momentum=0.1, affine=True, track_running_stats=True)
        (3): GLU()
      )
      (upsample4): Sequential(
        (0): Upsample(scale_factor=2.0, mode=nearest)
        (1): Conv2d(128, 128, kernel_size=(3, 3), stride=(1, 1), padding=(1, 1), bias=False)
        (2): BatchNorm2d(128, eps=1e-05, momentum=0.1, affine=True, track_running_stats=True)
        (3): GLU()
      )
      (upsample5): Sequential(
        (0): Upsample(scale_factor=2.0, mode=nearest)
        (1): Conv2d(64, 128, kernel_size=(3, 3), stride=(1, 1), padding=(1, 1), bias=False)
        (2): BatchNorm2d(128, eps=1e-05, momentum=0.1, affine=True, track_running_stats=True)
        (3): GLU()
      )
    )
    (h_net2): NEXT_STAGE_G(
      (jointConv): Sequential(
        (0): Conv2d(84, 128, kernel_size=(3, 3), stride=(1, 1), padding=(1, 1), bias=False)
        (1): BatchNorm2d(128, eps=1e-05, momentum=0.1, affine=True, track_running_stats=True)
        (2): GLU()
      )
      (residual): Sequential(
        (0): ResBlock(
          (block): Sequential(
            (0): Conv2d(64, 128, kernel_size=(3, 3), stride=(1, 1), padding=(1, 1), bias=False)
            (1): BatchNorm2d(128, eps=1e-05, momentum=0.1, affine=True, track_running_stats=True)
            (2): GLU()
            (3): Conv2d(64, 64, kernel_size=(3, 3), stride=(1, 1), padding=(1, 1), bias=False)
            (4): BatchNorm2d(64, eps=1e-05, momentum=0.1, affine=True, track_running_stats=True)
          )
        )
        (1): ResBlock(
          (block): Sequential(
            (0): Conv2d(64, 128, kernel_size=(3, 3), stride=(1, 1), padding=(1, 1), bias=False)
            (1): BatchNorm2d(128, eps=1e-05, momentum=0.1, affine=True, track_running_stats=True)
            (2): GLU()
            (3): Conv2d(64, 64, kernel_size=(3, 3), stride=(1, 1), padding=(1, 1), bias=False)
            (4): BatchNorm2d(64, eps=1e-05, momentum=0.1, affine=True, track_running_stats=True)
          )
        )
      )
      (samesample): Sequential(
        (0): Conv2d(64, 64, kernel_size=(3, 3), stride=(1, 1), padding=(1, 1), bias=False)
        (1): BatchNorm2d(64, eps=1e-05, momentum=0.1, affine=True, track_running_stats=True)
        (2): GLU()
      )
    )
    (img_net2): GET_IMAGE_G(
      (img): Sequential(
        (0): Conv2d(32, 3, kernel_size=(3, 3), stride=(1, 1), padding=(1, 1), bias=False)
        (1): Tanh()
      )
    )
    (img_net2_mask): GET_MASK_G(
      (img): Sequential(
        (0): Conv2d(32, 1, kernel_size=(3, 3), stride=(1, 1), padding=(1, 1), bias=False)
        (1): Sigmoid()
      )
    )
    (h_net3): NEXT_STAGE_G(
      (jointConv): Sequential(
        (0): Conv2d(232, 64, kernel_size=(3, 3), stride=(1, 1), padding=(1, 1), bias=False)
        (1): BatchNorm2d(64, eps=1e-05, momentum=0.1, affine=True, track_running_stats=True)
        (2): GLU()
      )
      (residual): Sequential(
        (0): ResBlock(
          (block): Sequential(
            (0): Conv2d(32, 64, kernel_size=(3, 3), stride=(1, 1), padding=(1, 1), bias=False)
            (1): BatchNorm2d(64, eps=1e-05, momentum=0.1, affine=True, track_running_stats=True)
            (2): GLU()
            (3): Conv2d(32, 32, kernel_size=(3, 3), stride=(1, 1), padding=(1, 1), bias=False)
            (4): BatchNorm2d(32, eps=1e-05, momentum=0.1, affine=True, track_running_stats=True)
          )
        )
        (1): ResBlock(
          (block): Sequential(
            (0): Conv2d(32, 64, kernel_size=(3, 3), stride=(1, 1), padding=(1, 1), bias=False)
            (1): BatchNorm2d(64, eps=1e-05, momentum=0.1, affine=True, track_running_stats=True)
            (2): GLU()
            (3): Conv2d(32, 32, kernel_size=(3, 3), stride=(1, 1), padding=(1, 1), bias=False)
            (4): BatchNorm2d(32, eps=1e-05, momentum=0.1, affine=True, track_running_stats=True)
          )
        )
      )
      (samesample): Sequential(
        (0): Conv2d(32, 32, kernel_size=(3, 3), stride=(1, 1), padding=(1, 1), bias=False)
        (1): BatchNorm2d(32, eps=1e-05, momentum=0.1, affine=True, track_running_stats=True)
        (2): GLU()
      )
    )
    (img_net3): GET_IMAGE_G(
      (img): Sequential(
        (0): Conv2d(16, 3, kernel_size=(3, 3), stride=(1, 1), padding=(1, 1), bias=False)
        (1): Tanh()
      )
    )
    (img_net3_mask): GET_MASK_G(
      (img): Sequential(
        (0): Conv2d(16, 1, kernel_size=(3, 3), stride=(1, 1), padding=(1, 1), bias=False)
        (1): Sigmoid()
      )
    )
    (upsampling): Upsample(scale_factor=2.0, mode=bilinear)
    (scale_fimg): UpsamplingBilinear2d(size=[126, 126], mode=bilinear)
  )
)
DataParallel(
  (module): D_NET(
    (fromRGB): Sequential(
      (0): Conv2d(3, 32, kernel_size=(1, 1), stride=(1, 1), bias=False)
      (1): LeakyReLU(negative_slope=0.2, inplace=True)
    )
    (patchgan_img_code_s16): Sequential(
      (0): Conv2d(32, 64, kernel_size=(3, 3), stride=(1, 1), bias=False)
      (1): LeakyReLU(negative_slope=0.2, inplace=True)
      (2): AvgPool2d(kernel_size=(2, 2), stride=(2, 2), padding=0)
      (3): Conv2d(64, 128, kernel_size=(3, 3), stride=(1, 1), bias=False)
      (4): LeakyReLU(negative_slope=0.2, inplace=True)
      (5): AvgPool2d(kernel_size=(2, 2), stride=(2, 2), padding=0)
      (6): Conv2d(128, 256, kernel_size=(3, 3), stride=(1, 1), bias=False)
      (7): LeakyReLU(negative_slope=0.2, inplace=True)
    )
    (uncond_logits1): Sequential(
      (0): Conv2d(256, 1, kernel_size=(3, 3), stride=(1, 1))
      (1): Sigmoid()
    )
    (uncond_logits2): Sequential(
      (0): Conv2d(256, 1, kernel_size=(3, 3), stride=(1, 1))
      (1): Sigmoid()
    )
  )
)
DataParallel(
  (module): D_NET(
    (fromRGB): Sequential(
      (0): Conv2d(3, 32, kernel_size=(1, 1), stride=(1, 1), bias=False)
      (1): LeakyReLU(negative_slope=0.2, inplace=True)
    )
    (img_code_s16): Sequential(
      (0): Conv2d(32, 64, kernel_size=(3, 3), stride=(1, 1), padding=(1, 1), bias=False)
      (1): BatchNorm2d(64, eps=1e-05, momentum=0.1, affine=True, track_running_stats=True)
      (2): LeakyReLU(negative_slope=0.2, inplace=True)
      (3): AvgPool2d(kernel_size=(2, 2), stride=(2, 2), padding=0)
      (4): Conv2d(64, 128, kernel_size=(3, 3), stride=(1, 1), padding=(1, 1), bias=False)
      (5): BatchNorm2d(128, eps=1e-05, momentum=0.1, affine=True, track_running_stats=True)
      (6): LeakyReLU(negative_slope=0.2, inplace=True)
      (7): AvgPool2d(kernel_size=(2, 2), stride=(2, 2), padding=0)
      (8): Conv2d(128, 256, kernel_size=(3, 3), stride=(1, 1), padding=(1, 1), bias=False)
      (9): BatchNorm2d(256, eps=1e-05, momentum=0.1, affine=True, track_running_stats=True)
      (10): LeakyReLU(negative_slope=0.2, inplace=True)
      (11): AvgPool2d(kernel_size=(2, 2), stride=(2, 2), padding=0)
      (12): Conv2d(256, 512, kernel_size=(3, 3), stride=(1, 1), padding=(1, 1), bias=False)
      (13): BatchNorm2d(512, eps=1e-05, momentum=0.1, affine=True, track_running_stats=True)
      (14): LeakyReLU(negative_slope=0.2, inplace=True)
      (15): AvgPool2d(kernel_size=(2, 2), stride=(2, 2), padding=0)
    )
    (img_code_s32): Sequential(
      (0): Conv2d(512, 1024, kernel_size=(3, 3), stride=(1, 1), padding=(1, 1), bias=False)
      (1): BatchNorm2d(1024, eps=1e-05, momentum=0.1, affine=True, track_running_stats=True)
      (2): LeakyReLU(negative_slope=0.2, inplace=True)
      (3): AvgPool2d(kernel_size=(2, 2), stride=(2, 2), padding=0)
    )
    (img_code_s32_1): Sequential(
      (0): Conv2d(1024, 512, kernel_size=(3, 3), stride=(1, 1), padding=(1, 1), bias=False)
      (1): BatchNorm2d(512, eps=1e-05, momentum=0.1, affine=True, track_running_stats=True)
      (2): LeakyReLU(negative_slope=0.2, inplace=True)
    )
    (logits): Sequential(
      (0): Conv2d(512, 20, kernel_size=(4, 4), stride=(4, 4))
    )
    (jointConv): Sequential(
      (0): Conv2d(512, 512, kernel_size=(3, 3), stride=(1, 1), padding=(1, 1), bias=False)
      (1): BatchNorm2d(512, eps=1e-05, momentum=0.1, affine=True, track_running_stats=True)
      (2): LeakyReLU(negative_slope=0.2, inplace=True)
    )
    (uncond_logits): Sequential(
      (0): Conv2d(512, 1, kernel_size=(4, 4), stride=(4, 4))
      (1): Sigmoid()
    )
  )
)
DataParallel(
  (module): D_NET(
    (fromRGB): Sequential(
      (0): Conv2d(3, 32, kernel_size=(1, 1), stride=(1, 1), bias=False)
      (1): LeakyReLU(negative_slope=0.2, inplace=True)
    )
    (img_code_s16): Sequential(
      (0): Conv2d(32, 64, kernel_size=(3, 3), stride=(1, 1), padding=(1, 1), bias=False)
      (1): BatchNorm2d(64, eps=1e-05, momentum=0.1, affine=True, track_running_stats=True)
      (2): LeakyReLU(negative_slope=0.2, inplace=True)
      (3): AvgPool2d(kernel_size=(2, 2), stride=(2, 2), padding=0)
      (4): Conv2d(64, 128, kernel_size=(3, 3), stride=(1, 1), padding=(1, 1), bias=False)
      (5): BatchNorm2d(128, eps=1e-05, momentum=0.1, affine=True, track_running_stats=True)
      (6): LeakyReLU(negative_slope=0.2, inplace=True)
      (7): AvgPool2d(kernel_size=(2, 2), stride=(2, 2), padding=0)
      (8): Conv2d(128, 256, kernel_size=(3, 3), stride=(1, 1), padding=(1, 1), bias=False)
      (9): BatchNorm2d(256, eps=1e-05, momentum=0.1, affine=True, track_running_stats=True)
      (10): LeakyReLU(negative_slope=0.2, inplace=True)
      (11): AvgPool2d(kernel_size=(2, 2), stride=(2, 2), padding=0)
      (12): Conv2d(256, 512, kernel_size=(3, 3), stride=(1, 1), padding=(1, 1), bias=False)
      (13): BatchNorm2d(512, eps=1e-05, momentum=0.1, affine=True, track_running_stats=True)
      (14): LeakyReLU(negative_slope=0.2, inplace=True)
      (15): AvgPool2d(kernel_size=(2, 2), stride=(2, 2), padding=0)
    )
    (img_code_s32): Sequential(
      (0): Conv2d(512, 1024, kernel_size=(3, 3), stride=(1, 1), padding=(1, 1), bias=False)
      (1): BatchNorm2d(1024, eps=1e-05, momentum=0.1, affine=True, track_running_stats=True)
      (2): LeakyReLU(negative_slope=0.2, inplace=True)
      (3): AvgPool2d(kernel_size=(2, 2), stride=(2, 2), padding=0)
    )
    (img_code_s32_1): Sequential(
      (0): Conv2d(1024, 512, kernel_size=(3, 3), stride=(1, 1), padding=(1, 1), bias=False)
      (1): BatchNorm2d(512, eps=1e-05, momentum=0.1, affine=True, track_running_stats=True)
      (2): LeakyReLU(negative_slope=0.2, inplace=True)
    )
    (logits): Sequential(
      (0): Conv2d(512, 200, kernel_size=(4, 4), stride=(4, 4))
    )
    (jointConv): Sequential(
      (0): Conv2d(512, 512, kernel_size=(3, 3), stride=(1, 1), padding=(1, 1), bias=False)
      (1): BatchNorm2d(512, eps=1e-05, momentum=0.1, affine=True, track_running_stats=True)
      (2): LeakyReLU(negative_slope=0.2, inplace=True)
    )
    (uncond_logits): Sequential(
      (0): Conv2d(512, 1, kernel_size=(4, 4), stride=(4, 4))
      (1): Sigmoid()
    )
  )
)
/home/yang/.local/lib/python3.6/site-packages/torch/nn/_reduction.py:43: UserWarning: size_average and reduce args will be deprecated, please use reduction='none' instead.
  warnings.warn(warning.format(ret))
Starting normal FineGAN training..
/home/yang/.local/lib/python3.6/site-packages/torchvision/transforms/transforms.py:211: UserWarning: The use of the transforms.Scale transform is deprecated, please use transforms.Resize instead.
…
  "please use transforms.Resize instead.")
Total filenames:  11788 001.Black_footed_Albatross/Black_Footed_Albatross_0046_18.jpg
Load filenames from: ../../data/birds/images.txt (11788)
/home/yang/b6_finegan/code/trainer.py:48: UserWarning: nn.init.orthogonal is now deprecated in favor of nn.init.orthogonal_.
  nn.init.orthogonal(m.weight.data, 1.0)
/home/yang/b6_finegan/code/trainer.py:43: UserWarning: nn.init.orthogonal is now deprecated in favor of nn.init.orthogonal_.
  nn.init.orthogonal(m.weight.data, 1.0)
DataParallel(
  (module): G_NET(
    (h_net1_bg): INIT_STAGE_G(
      (fc): Sequential(
        (0): Linear(in_features=300, out_features=32768, bias=False)
        (1): BatchNorm1d(32768, eps=1e-05, momentum=0.1, affine=True, track_running_stats=True)
        (2): GLU()
      )
      (upsample1): Sequential(
        (0): Upsample(scale_factor=2.0, mode=nearest)
        (1): Conv2d(1024, 1024, kernel_size=(3, 3), stride=(1, 1), padding=(1, 1), bias=False)
        (2): BatchNorm2d(1024, eps=1e-05, momentum=0.1, affine=True, track_running_stats=True)
        (3): GLU()
      )
      (upsample2): Sequential(
        (0): Upsample(scale_factor=2.0, mode=nearest)
        (1): Conv2d(512, 512, kernel_size=(3, 3), stride=(1, 1), padding=(1, 1), bias=False)
        (2): BatchNorm2d(512, eps=1e-05, momentum=0.1, affine=True, track_running_stats=True)
        (3): GLU()
      )
      (upsample3): Sequential(
        (0): Upsample(scale_factor=2.0, mode=nearest)
        (1): Conv2d(256, 256, kernel_size=(3, 3), stride=(1, 1), padding=(1, 1), bias=False)
        (2): BatchNorm2d(256, eps=1e-05, momentum=0.1, affine=True, track_running_stats=True)
        (3): GLU()
      )
      (upsample4): Sequential(
        (0): Upsample(scale_factor=2.0, mode=nearest)
        (1): Conv2d(128, 128, kernel_size=(3, 3), stride=(1, 1), padding=(1, 1), bias=False)
        (2): BatchNorm2d(128, eps=1e-05, momentum=0.1, affine=True, track_running_stats=True)
        (3): GLU()
      )
      (upsample5): Sequential(
        (0): Upsample(scale_factor=2.0, mode=nearest)
        (1): Conv2d(64, 128, kernel_size=(3, 3), stride=(1, 1), padding=(1, 1), bias=False)
        (2): BatchNorm2d(128, eps=1e-05, momentum=0.1, affine=True, track_running_stats=True)
        (3): GLU()
      )
    )
    (img_net1_bg): GET_IMAGE_G(
      (img): Sequential(
        (0): Conv2d(64, 3, kernel_size=(3, 3), stride=(1, 1), padding=(1, 1), bias=False)
        (1): Tanh()
      )
    )
    (h_net1): INIT_STAGE_G(
      (fc): Sequential(
        (0): Linear(in_features=120, out_features=32768, bias=False)
        (1): BatchNorm1d(32768, eps=1e-05, momentum=0.1, affine=True, track_running_stats=True)
        (2): GLU()
      )
      (upsample1): Sequential(
        (0): Upsample(scale_factor=2.0, mode=nearest)
        (1): Conv2d(1024, 1024, kernel_size=(3, 3), stride=(1, 1), padding=(1, 1), bias=False)
        (2): BatchNorm2d(1024, eps=1e-05, momentum=0.1, affine=True, track_running_stats=True)
        (3): GLU()
      )
      (upsample2): Sequential(
        (0): Upsample(scale_factor=2.0, mode=nearest)
        (1): Conv2d(512, 512, kernel_size=(3, 3), stride=(1, 1), padding=(1, 1), bias=False)
        (2): BatchNorm2d(512, eps=1e-05, momentum=0.1, affine=True, track_running_stats=True)
        (3): GLU()
      )
      (upsample3): Sequential(
        (0): Upsample(scale_factor=2.0, mode=nearest)
        (1): Conv2d(256, 256, kernel_size=(3, 3), stride=(1, 1), padding=(1, 1), bias=False)
        (2): BatchNorm2d(256, eps=1e-05, momentum=0.1, affine=True, track_running_stats=True)
        (3): GLU()
      )
      (upsample4): Sequential(
        (0): Upsample(scale_factor=2.0, mode=nearest)
        (1): Conv2d(128, 128, kernel_size=(3, 3), stride=(1, 1), padding=(1, 1), bias=False)
        (2): BatchNorm2d(128, eps=1e-05, momentum=0.1, affine=True, track_running_stats=True)
        (3): GLU()
      )
      (upsample5): Sequential(
        (0): Upsample(scale_factor=2.0, mode=nearest)
        (1): Conv2d(64, 128, kernel_size=(3, 3), stride=(1, 1), padding=(1, 1), bias=False)
        (2): BatchNorm2d(128, eps=1e-05, momentum=0.1, affine=True, track_running_stats=True)
        (3): GLU()
      )
    )
    (h_net2): NEXT_STAGE_G(
      (jointConv): Sequential(
        (0): Conv2d(84, 128, kernel_size=(3, 3), stride=(1, 1), padding=(1, 1), bias=False)
        (1): BatchNorm2d(128, eps=1e-05, momentum=0.1, affine=True, track_running_stats=True)
        (2): GLU()
      )
      (residual): Sequential(
        (0): ResBlock(
          (block): Sequential(
            (0): Conv2d(64, 128, kernel_size=(3, 3), stride=(1, 1), padding=(1, 1), bias=False)
            (1): BatchNorm2d(128, eps=1e-05, momentum=0.1, affine=True, track_running_stats=True)
            (2): GLU()
            (3): Conv2d(64, 64, kernel_size=(3, 3), stride=(1, 1), padding=(1, 1), bias=False)
            (4): BatchNorm2d(64, eps=1e-05, momentum=0.1, affine=True, track_running_stats=True)
          )
        )
        (1): ResBlock(
          (block): Sequential(
            (0): Conv2d(64, 128, kernel_size=(3, 3), stride=(1, 1), padding=(1, 1), bias=False)
            (1): BatchNorm2d(128, eps=1e-05, momentum=0.1, affine=True, track_running_stats=True)
            (2): GLU()
            (3): Conv2d(64, 64, kernel_size=(3, 3), stride=(1, 1), padding=(1, 1), bias=False)
            (4): BatchNorm2d(64, eps=1e-05, momentum=0.1, affine=True, track_running_stats=True)
          )
        )
      )
      (samesample): Sequential(
        (0): Conv2d(64, 64, kernel_size=(3, 3), stride=(1, 1), padding=(1, 1), bias=False)
        (1): BatchNorm2d(64, eps=1e-05, momentum=0.1, affine=True, track_running_stats=True)
        (2): GLU()
      )
    )
    (img_net2): GET_IMAGE_G(
      (img): Sequential(
        (0): Conv2d(32, 3, kernel_size=(3, 3), stride=(1, 1), padding=(1, 1), bias=False)
        (1): Tanh()
      )
    )
    (img_net2_mask): GET_MASK_G(
      (img): Sequential(
        (0): Conv2d(32, 1, kernel_size=(3, 3), stride=(1, 1), padding=(1, 1), bias=False)
        (1): Sigmoid()
      )
    )
    (h_net3): NEXT_STAGE_G(
      (jointConv): Sequential(
        (0): Conv2d(232, 64, kernel_size=(3, 3), stride=(1, 1), padding=(1, 1), bias=False)
        (1): BatchNorm2d(64, eps=1e-05, momentum=0.1, affine=True, track_running_stats=True)
        (2): GLU()
      )
      (residual): Sequential(
        (0): ResBlock(
          (block): Sequential(
            (0): Conv2d(32, 64, kernel_size=(3, 3), stride=(1, 1), padding=(1, 1), bias=False)
            (1): BatchNorm2d(64, eps=1e-05, momentum=0.1, affine=True, track_running_stats=True)
            (2): GLU()
            (3): Conv2d(32, 32, kernel_size=(3, 3), stride=(1, 1), padding=(1, 1), bias=False)
            (4): BatchNorm2d(32, eps=1e-05, momentum=0.1, affine=True, track_running_stats=True)
          )
        )
        (1): ResBlock(
          (block): Sequential(
            (0): Conv2d(32, 64, kernel_size=(3, 3), stride=(1, 1), padding=(1, 1), bias=False)
            (1): BatchNorm2d(64, eps=1e-05, momentum=0.1, affine=True, track_running_stats=True)
            (2): GLU()
            (3): Conv2d(32, 32, kernel_size=(3, 3), stride=(1, 1), padding=(1, 1), bias=False)
            (4): BatchNorm2d(32, eps=1e-05, momentum=0.1, affine=True, track_running_stats=True)
          )
        )
      )
      (samesample): Sequential(
        (0): Conv2d(32, 32, kernel_size=(3, 3), stride=(1, 1), padding=(1, 1), bias=False)
        (1): BatchNorm2d(32, eps=1e-05, momentum=0.1, affine=True, track_running_stats=True)
        (2): GLU()
      )
    )
    (img_net3): GET_IMAGE_G(
      (img): Sequential(
        (0): Conv2d(16, 3, kernel_size=(3, 3), stride=(1, 1), padding=(1, 1), bias=False)
        (1): Tanh()
      )
    )
    (img_net3_mask): GET_MASK_G(
      (img): Sequential(
        (0): Conv2d(16, 1, kernel_size=(3, 3), stride=(1, 1), padding=(1, 1), bias=False)
        (1): Sigmoid()
      )
    )
    (upsampling): Upsample(scale_factor=2.0, mode=bilinear)
    (scale_fimg): UpsamplingBilinear2d(size=[126, 126], mode=bilinear)
  )
)
DataParallel(
  (module): D_NET(
    (fromRGB): Sequential(
      (0): Conv2d(3, 32, kernel_size=(1, 1), stride=(1, 1), bias=False)
      (1): LeakyReLU(negative_slope=0.2, inplace=True)
    )
    (patchgan_img_code_s16): encode_background_img_mnet(
      (downblock1): downBlock_mnet(
        (conv): MnetConv(
          (input_conv): Conv2d(32, 64, kernel_size=(3, 3), stride=(1, 1), bias=False)
          (mask_conv): Conv2d(1, 1, kernel_size=(3, 3), stride=(1, 1), bias=False)
        )
      )
      (downblock2): downBlock_mnet(
        (conv): MnetConv(
          (input_conv): Conv2d(64, 128, kernel_size=(3, 3), stride=(1, 1), bias=False)
          (mask_conv): Conv2d(1, 1, kernel_size=(3, 3), stride=(1, 1), bias=False)
        )
      )
      (conv): MnetConv(
        (input_conv): Conv2d(128, 256, kernel_size=(3, 3), stride=(1, 1), bias=False)
        (mask_conv): Conv2d(1, 1, kernel_size=(3, 3), stride=(1, 1), bias=False)
      )
    )
    (conv_uncond_logits1): MnetConv(
      (input_conv): Conv2d(256, 1, kernel_size=(3, 3), stride=(1, 1), bias=False)
      (mask_conv): Conv2d(1, 1, kernel_size=(3, 3), stride=(1, 1), bias=False)
    )
    (conv_uncond_logits2): MnetConv(
      (input_conv): Conv2d(256, 1, kernel_size=(3, 3), stride=(1, 1), bias=False)
      (mask_conv): Conv2d(1, 1, kernel_size=(3, 3), stride=(1, 1), bias=False)
    )
  )
)
DataParallel(
  (module): D_NET(
    (fromRGB): Sequential(
      (0): Conv2d(3, 32, kernel_size=(1, 1), stride=(1, 1), bias=False)
      (1): LeakyReLU(negative_slope=0.2, inplace=True)
    )
    (img_code_s16): Sequential(
      (0): Conv2d(32, 64, kernel_size=(3, 3), stride=(1, 1), padding=(1, 1), bias=False)
      (1): BatchNorm2d(64, eps=1e-05, momentum=0.1, affine=True, track_running_stats=True)
      (2): LeakyReLU(negative_slope=0.2, inplace=True)
      (3): AvgPool2d(kernel_size=(2, 2), stride=(2, 2), padding=0)
      (4): Conv2d(64, 128, kernel_size=(3, 3), stride=(1, 1), padding=(1, 1), bias=False)
      (5): BatchNorm2d(128, eps=1e-05, momentum=0.1, affine=True, track_running_stats=True)
      (6): LeakyReLU(negative_slope=0.2, inplace=True)
      (7): AvgPool2d(kernel_size=(2, 2), stride=(2, 2), padding=0)
      (8): Conv2d(128, 256, kernel_size=(3, 3), stride=(1, 1), padding=(1, 1), bias=False)
      (9): BatchNorm2d(256, eps=1e-05, momentum=0.1, affine=True, track_running_stats=True)
      (10): LeakyReLU(negative_slope=0.2, inplace=True)
      (11): AvgPool2d(kernel_size=(2, 2), stride=(2, 2), padding=0)
      (12): Conv2d(256, 512, kernel_size=(3, 3), stride=(1, 1), padding=(1, 1), bias=False)
      (13): BatchNorm2d(512, eps=1e-05, momentum=0.1, affine=True, track_running_stats=True)
      (14): LeakyReLU(negative_slope=0.2, inplace=True)
      (15): AvgPool2d(kernel_size=(2, 2), stride=(2, 2), padding=0)
    )
    (img_code_s32): Sequential(
      (0): Conv2d(512, 1024, kernel_size=(3, 3), stride=(1, 1), padding=(1, 1), bias=False)
      (1): BatchNorm2d(1024, eps=1e-05, momentum=0.1, affine=True, track_running_stats=True)
      (2): LeakyReLU(negative_slope=0.2, inplace=True)
      (3): AvgPool2d(kernel_size=(2, 2), stride=(2, 2), padding=0)
    )
    (img_code_s32_1): Sequential(
      (0): Conv2d(1024, 512, kernel_size=(3, 3), stride=(1, 1), padding=(1, 1), bias=False)
      (1): BatchNorm2d(512, eps=1e-05, momentum=0.1, affine=True, track_running_stats=True)
      (2): LeakyReLU(negative_slope=0.2, inplace=True)
    )
    (logits): Sequential(
      (0): Conv2d(512, 20, kernel_size=(4, 4), stride=(4, 4))
    )
    (jointConv): Sequential(
      (0): Conv2d(512, 512, kernel_size=(3, 3), stride=(1, 1), padding=(1, 1), bias=False)
      (1): BatchNorm2d(512, eps=1e-05, momentum=0.1, affine=True, track_running_stats=True)
      (2): LeakyReLU(negative_slope=0.2, inplace=True)
    )
    (uncond_logits): Sequential(
      (0): Conv2d(512, 1, kernel_size=(4, 4), stride=(4, 4))
      (1): Sigmoid()
    )
  )
)
DataParallel(
  (module): D_NET(
    (fromRGB): Sequential(
      (0): Conv2d(3, 32, kernel_size=(1, 1), stride=(1, 1), bias=False)
      (1): LeakyReLU(negative_slope=0.2, inplace=True)
    )
    (img_code_s16): Sequential(
      (0): Conv2d(32, 64, kernel_size=(3, 3), stride=(1, 1), padding=(1, 1), bias=False)
      (1): BatchNorm2d(64, eps=1e-05, momentum=0.1, affine=True, track_running_stats=True)
      (2): LeakyReLU(negative_slope=0.2, inplace=True)
      (3): AvgPool2d(kernel_size=(2, 2), stride=(2, 2), padding=0)
      (4): Conv2d(64, 128, kernel_size=(3, 3), stride=(1, 1), padding=(1, 1), bias=False)
      (5): BatchNorm2d(128, eps=1e-05, momentum=0.1, affine=True, track_running_stats=True)
      (6): LeakyReLU(negative_slope=0.2, inplace=True)
      (7): AvgPool2d(kernel_size=(2, 2), stride=(2, 2), padding=0)
      (8): Conv2d(128, 256, kernel_size=(3, 3), stride=(1, 1), padding=(1, 1), bias=False)
      (9): BatchNorm2d(256, eps=1e-05, momentum=0.1, affine=True, track_running_stats=True)
      (10): LeakyReLU(negative_slope=0.2, inplace=True)
      (11): AvgPool2d(kernel_size=(2, 2), stride=(2, 2), padding=0)
      (12): Conv2d(256, 512, kernel_size=(3, 3), stride=(1, 1), padding=(1, 1), bias=False)
      (13): BatchNorm2d(512, eps=1e-05, momentum=0.1, affine=True, track_running_stats=True)
      (14): LeakyReLU(negative_slope=0.2, inplace=True)
      (15): AvgPool2d(kernel_size=(2, 2), stride=(2, 2), padding=0)
    )
    (img_code_s32): Sequential(
      (0): Conv2d(512, 1024, kernel_size=(3, 3), stride=(1, 1), padding=(1, 1), bias=False)
      (1): BatchNorm2d(1024, eps=1e-05, momentum=0.1, affine=True, track_running_stats=True)
      (2): LeakyReLU(negative_slope=0.2, inplace=True)
      (3): AvgPool2d(kernel_size=(2, 2), stride=(2, 2), padding=0)
    )
    (img_code_s32_1): Sequential(
      (0): Conv2d(1024, 512, kernel_size=(3, 3), stride=(1, 1), padding=(1, 1), bias=False)
      (1): BatchNorm2d(512, eps=1e-05, momentum=0.1, affine=True, track_running_stats=True)
      (2): LeakyReLU(negative_slope=0.2, inplace=True)
    )
    (logits): Sequential(
      (0): Conv2d(512, 200, kernel_size=(4, 4), stride=(4, 4))
    )
    (jointConv): Sequential(
      (0): Conv2d(512, 512, kernel_size=(3, 3), stride=(1, 1), padding=(1, 1), bias=False)
      (1): BatchNorm2d(512, eps=1e-05, momentum=0.1, affine=True, track_running_stats=True)
      (2): LeakyReLU(negative_slope=0.2, inplace=True)
    )
    (uncond_logits): Sequential(
      (0): Conv2d(512, 1, kernel_size=(4, 4), stride=(4, 4))
      (1): Sigmoid()
    )
  )
)
/home/yang/.local/lib/python3.6/site-packages/torch/nn/_reduction.py:43: UserWarning: size_average and reduce args will be deprecated, please use reduction='none' instead.
  warnings.warn(warning.format(ret))
Starting normal FineGAN training..
/home/yang/.local/lib/python3.6/site-packages/torchvision/transforms/transforms.py:211: UserWarning: The use of the transforms.Scale transform is deprecated, please use transforms.Resize instead.
…
           'STABLE_EPOCHS_PER_DEPTH': [1, 80, 100, 120],
           'START_DEPTH': 0,
           'VIS_COUNT': 64},
 'TREE': {'BASE_SIZE': 64, 'BRANCH_NUM': 3},
 'WORKERS': 4}
/data/yang_data/b9_finegan/code/trainer.py:57: UserWarning: nn.init.orthogonal is now deprecated in favor of nn.init.orthogonal_.
  nn.init.orthogonal(m.weight.data, 1.0)
/data/yang_data/b9_finegan/code/trainer.py:52: UserWarning: nn.init.orthogonal is now deprecated in favor of nn.init.orthogonal_.
  nn.init.orthogonal(m.weight.data, 1.0)
DataParallel(
  (module): G_NET(
    (bg_code_init): INIT_STAGE_G(
      (fc): Sequential(
        (0): Linear(in_features=300, out_features=16384, bias=False)
        (1): BatchNorm1d(16384, eps=1e-05, momentum=0.1, affine=True, track_running_stats=True)
        (2): GLU()
      )
      (upsample1): Sequential(
        (0): Upsample(scale_factor=2.0, mode=nearest)
        (1): Conv2d(512, 512, kernel_size=(3, 3), stride=(1, 1), padding=(1, 1), bias=False)
        (2): BatchNorm2d(512, eps=1e-05, momentum=0.1, affine=True, track_running_stats=True)
        (3): GLU()
      )
      (upsample2): Sequential(
        (0): Upsample(scale_factor=2.0, mode=nearest)
        (1): Conv2d(256, 256, kernel_size=(3, 3), stride=(1, 1), padding=(1, 1), bias=False)
        (2): BatchNorm2d(256, eps=1e-05, momentum=0.1, affine=True, track_running_stats=True)
        (3): GLU()
      )
      (upsample3): Sequential(
        (0): Upsample(scale_factor=2.0, mode=nearest)
        (1): Conv2d(128, 128, kernel_size=(3, 3), stride=(1, 1), padding=(1, 1), bias=False)
        (2): BatchNorm2d(128, eps=1e-05, momentum=0.1, affine=True, track_running_stats=True)
        (3): GLU()
      )
    )
    (bg_code_net): ModuleList(
      (0): NEXT_STAGE_G_SAME(
        (jointConv): Sequential(
          (0): Conv2d(264, 128, kernel_size=(3, 3), stride=(1, 1), padding=(1, 1), bias=False)
          (1): BatchNorm2d(128, eps=1e-05, momentum=0.1, affine=True, track_running_stats=True)
          (2): GLU()
        )
        (residual): Sequential(
          (0): ResBlock(
            (block): Sequential(
              (0): Conv2d(64, 128, kernel_size=(3, 3), stride=(1, 1), padding=(1, 1), bias=False)
              (1): BatchNorm2d(128, eps=1e-05, momentum=0.1, affine=True, track_running_stats=True)
              (2): GLU()
              (3): Conv2d(64, 64, kernel_size=(3, 3), stride=(1, 1), padding=(1, 1), bias=False)
              (4): BatchNorm2d(64, eps=1e-05, momentum=0.1, affine=True, track_running_stats=True)
            )
          )
          (1): ResBlock(
            (block): Sequential(
              (0): Conv2d(64, 128, kernel_size=(3, 3), stride=(1, 1), padding=(1, 1), bias=False)
              (1): BatchNorm2d(128, eps=1e-05, momentum=0.1, affine=True, track_running_stats=True)
              (2): GLU()
              (3): Conv2d(64, 64, kernel_size=(3, 3), stride=(1, 1), padding=(1, 1), bias=False)
              (4): BatchNorm2d(64, eps=1e-05, momentum=0.1, affine=True, track_running_stats=True)
            )
          )
        )
        (samesample): Sequential(
          (0): Conv2d(64, 64, kernel_size=(3, 3), stride=(1, 1), padding=(1, 1), bias=False)
          (1): BatchNorm2d(64, eps=1e-05, momentum=0.1, affine=True, track_running_stats=True)
          (2): GLU()
        )
      )
    )
    (bg_img_net): ModuleList(
      (0): TO_RGB_LAYER(
        (img): Sequential(
          (0): Conv2d(32, 3, kernel_size=(3, 3), stride=(1, 1), padding=(1, 1), bias=False)
          (1): Tanh()
        )
      )
    )
    (p_code_init): INIT_STAGE_G(
      (fc): Sequential(
        (0): Linear(in_features=120, out_features=16384, bias=False)
        (1): BatchNorm1d(16384, eps=1e-05, momentum=0.1, affine=True, track_running_stats=True)
        (2): GLU()
      )
      (upsample1): Sequential(
        (0): Upsample(scale_factor=2.0, mode=nearest)
        (1): Conv2d(512, 512, kernel_size=(3, 3), stride=(1, 1), padding=(1, 1), bias=False)
        (2): BatchNorm2d(512, eps=1e-05, momentum=0.1, affine=True, track_running_stats=True)
        (3): GLU()
      )
      (upsample2): Sequential(
        (0): Upsample(scale_factor=2.0, mode=nearest)
        (1): Conv2d(256, 256, kernel_size=(3, 3), stride=(1, 1), padding=(1, 1), bias=False)
        (2): BatchNorm2d(256, eps=1e-05, momentum=0.1, affine=True, track_running_stats=True)
        (3): GLU()
      )
      (upsample3): Sequential(
        (0): Upsample(scale_factor=2.0, mode=nearest)
        (1): Conv2d(128, 128, kernel_size=(3, 3), stride=(1, 1), padding=(1, 1), bias=False)
        (2): BatchNorm2d(128, eps=1e-05, momentum=0.1, affine=True, track_running_stats=True)
        (3): GLU()
      )
    )
    (p_code_net): ModuleList(
      (0): NEXT_STAGE_G_SAME(
        (jointConv): Sequential(
          (0): Conv2d(84, 128, kernel_size=(3, 3), stride=(1, 1), padding=(1, 1), bias=False)
          (1): BatchNorm2d(128, eps=1e-05, momentum=0.1, affine=True, track_running_stats=True)
          (2): GLU()
        )
        (residual): Sequential(
          (0): ResBlock(
            (block): Sequential(
              (0): Conv2d(64, 128, kernel_size=(3, 3), stride=(1, 1), padding=(1, 1), bias=False)
              (1): BatchNorm2d(128, eps=1e-05, momentum=0.1, affine=True, track_running_stats=True)
              (2): GLU()
              (3): Conv2d(64, 64, kernel_size=(3, 3), stride=(1, 1), padding=(1, 1), bias=False)
              (4): BatchNorm2d(64, eps=1e-05, momentum=0.1, affine=True, track_running_stats=True)
            )
          )
          (1): ResBlock(
            (block): Sequential(
              (0): Conv2d(64, 128, kernel_size=(3, 3), stride=(1, 1), padding=(1, 1), bias=False)
              (1): BatchNorm2d(128, eps=1e-05, momentum=0.1, affine=True, track_running_stats=True)
              (2): GLU()
              (3): Conv2d(64, 64, kernel_size=(3, 3), stride=(1, 1), padding=(1, 1), bias=False)
              (4): BatchNorm2d(64, eps=1e-05, momentum=0.1, affine=True, track_running_stats=True)
            )
          )
        )
        (samesample): Sequential(
          (0): Conv2d(64, 64, kernel_size=(3, 3), stride=(1, 1), padding=(1, 1), bias=False)
          (1): BatchNorm2d(64, eps=1e-05, momentum=0.1, affine=True, track_running_stats=True)
          (2): GLU()
        )
      )
    )
    (p_fg_net): ModuleList(
      (0): TO_RGB_LAYER(
        (img): Sequential(
          (0): Conv2d(32, 3, kernel_size=(3, 3), stride=(1, 1), padding=(1, 1), bias=False)
          (1): Tanh()
        )
      )
    )
    (p_mk_net): ModuleList(
      (0): TO_GRAY_LAYER(
        (img): Sequential(
          (0): Conv2d(32, 1, kernel_size=(3, 3), stride=(1, 1), padding=(1, 1), bias=False)
          (1): Sigmoid()
        )
      )
    )
    (c_code_net): ModuleList(
      (0): NEXT_STAGE_G_SAME(
        (jointConv): Sequential(
          (0): Conv2d(232, 64, kernel_size=(3, 3), stride=(1, 1), padding=(1, 1), bias=False)
          (1): BatchNorm2d(64, eps=1e-05, momentum=0.1, affine=True, track_running_stats=True)
          (2): GLU()
        )
        (residual): Sequential(
          (0): ResBlock(
            (block): Sequential(
              (0): Conv2d(32, 64, kernel_size=(3, 3), stride=(1, 1), padding=(1, 1), bias=False)
              (1): BatchNorm2d(64, eps=1e-05, momentum=0.1, affine=True, track_running_stats=True)
              (2): GLU()
              (3): Conv2d(32, 32, kernel_size=(3, 3), stride=(1, 1), padding=(1, 1), bias=False)
              (4): BatchNorm2d(32, eps=1e-05, momentum=0.1, affine=True, track_running_stats=True)
            )
          )
          (1): ResBlock(
            (block): Sequential(
              (0): Conv2d(32, 64, kernel_size=(3, 3), stride=(1, 1), padding=(1, 1), bias=False)
              (1): BatchNorm2d(64, eps=1e-05, momentum=0.1, affine=True, track_running_stats=True)
              (2): GLU()
              (3): Conv2d(32, 32, kernel_size=(3, 3), stride=(1, 1), padding=(1, 1), bias=False)
              (4): BatchNorm2d(32, eps=1e-05, momentum=0.1, affine=True, track_running_stats=True)
            )
          )
        )
        (samesample): Sequential(
          (0): Conv2d(32, 32, kernel_size=(3, 3), stride=(1, 1), padding=(1, 1), bias=False)
          (1): BatchNorm2d(32, eps=1e-05, momentum=0.1, affine=True, track_running_stats=True)
          (2): GLU()
        )
      )
    )
    (c_fg_net): ModuleList(
      (0): TO_RGB_LAYER(
        (img): Sequential(
          (0): Conv2d(16, 3, kernel_size=(3, 3), stride=(1, 1), padding=(1, 1), bias=False)
          (1): Tanh()
        )
      )
    )
    (c_mk_net): ModuleList(
      (0): TO_GRAY_LAYER(
        (img): Sequential(
          (0): Conv2d(16, 1, kernel_size=(3, 3), stride=(1, 1), padding=(1, 1), bias=False)
          (1): Sigmoid()
        )
      )
    )
  )
)
DataParallel(
  (module): D_NET_BG(
    (from_RGB_net): ModuleList(
      (0): Sequential(
        (0): Conv2d(3, 256, kernel_size=(1, 1), stride=(1, 1), bias=False)
        (1): LeakyReLU(negative_slope=0.2, inplace=True)
      )
    )
    (down_net): ModuleList(
      (0): D_NET_BG_BASE(
        (conv): MnetConv(
          (input_conv): Conv2d(256, 512, kernel_size=(3, 3), stride=(1, 1), padding=(1, 1), bias=False)
          (mask_conv): Conv2d(1, 1, kernel_size=(3, 3), stride=(1, 1), padding=(1, 1), bias=False)
        )
        (conv_uncond_logits1): MnetConv(
          (input_conv): Conv2d(512, 1, kernel_size=(3, 3), stride=(1, 1), padding=(1, 1), bias=False)
          (mask_conv): Conv2d(1, 1, kernel_size=(3, 3), stride=(1, 1), padding=(1, 1), bias=False)
        )
        (conv_uncond_logits2): MnetConv(
          (input_conv): Conv2d(512, 1, kernel_size=(3, 3), stride=(1, 1), padding=(1, 1), bias=False)
          (mask_conv): Conv2d(1, 1, kernel_size=(3, 3), stride=(1, 1), padding=(1, 1), bias=False)
        )
      )
    )
  )
)
DataParallel(
  (module): D_NET_PC(
    (from_RGB_net): ModuleList(
      (0): Sequential(
        (0): Conv2d(3, 256, kernel_size=(1, 1), stride=(1, 1), bias=False)
        (1): LeakyReLU(negative_slope=0.2, inplace=True)
      )
    )
    (down_net): ModuleList(
      (0): D_NET_PC_BASE(
        (downblock1): Sequential(
          (0): Conv2d(256, 512, kernel_size=(3, 3), stride=(1, 1), padding=(1, 1), bias=False)
          (1): BatchNorm2d(512, eps=1e-05, momentum=0.1, affine=True, track_running_stats=True)
          (2): LeakyReLU(negative_slope=0.2, inplace=True)
          (3): AvgPool2d(kernel_size=2, stride=2, padding=0)
        )
        (downblock2): Sequential(
          (0): Conv2d(512, 512, kernel_size=(3, 3), stride=(1, 1), padding=(1, 1), bias=False)
          (1): BatchNorm2d(512, eps=1e-05, momentum=0.1, affine=True, track_running_stats=True)
          (2): LeakyReLU(negative_slope=0.2, inplace=True)
          (3): AvgPool2d(kernel_size=2, stride=2, padding=0)
        )
        (downblock3): Sequential(
          (0): Conv2d(512, 512, kernel_size=(3, 3), stride=(1, 1), padding=(1, 1), bias=False)
          (1): BatchNorm2d(512, eps=1e-05, momentum=0.1, affine=True, track_running_stats=True)
          (2): LeakyReLU(negative_slope=0.2, inplace=True)
          (3): AvgPool2d(kernel_size=2, stride=2, padding=0)
        )
        (logits): Sequential(
          (0): Conv2d(512, 20, kernel_size=(4, 4), stride=(4, 4))
        )
        (jointConv): Sequential(
          (0): Conv2d(512, 512, kernel_size=(3, 3), stride=(1, 1), padding=(1, 1), bias=False)
          (1): BatchNorm2d(512, eps=1e-05, momentum=0.1, affine=True, track_running_stats=True)
          (2): LeakyReLU(negative_slope=0.2, inplace=True)
        )
        (uncond_logits): Sequential(
          (0): Conv2d(512, 1, kernel_size=(4, 4), stride=(4, 4))
          (1): Sigmoid()
        )
      )
    )
  )
)
DataParallel(
  (module): D_NET_PC(
    (from_RGB_net): ModuleList(
      (0): Sequential(
        (0): Conv2d(3, 256, kernel_size=(1, 1), stride=(1, 1), bias=False)
        (1): LeakyReLU(negative_slope=0.2, inplace=True)
      )
    )
    (down_net): ModuleList(
      (0): D_NET_PC_BASE(
        (downblock1): Sequential(
          (0): Conv2d(256, 512, kernel_size=(3, 3), stride=(1, 1), padding=(1, 1), bias=False)
          (1): BatchNorm2d(512, eps=1e-05, momentum=0.1, affine=True, track_running_stats=True)
          (2): LeakyReLU(negative_slope=0.2, inplace=True)
          (3): AvgPool2d(kernel_size=2, stride=2, padding=0)
        )
        (downblock2): Sequential(
          (0): Conv2d(512, 512, kernel_size=(3, 3), stride=(1, 1), padding=(1, 1), bias=False)
          (1): BatchNorm2d(512, eps=1e-05, momentum=0.1, affine=True, track_running_stats=True)
          (2): LeakyReLU(negative_slope=0.2, inplace=True)
          (3): AvgPool2d(kernel_size=2, stride=2, padding=0)
        )
        (downblock3): Sequential(
          (0): Conv2d(512, 512, kernel_size=(3, 3), stride=(1, 1), padding=(1, 1), bias=False)
          (1): BatchNorm2d(512, eps=1e-05, momentum=0.1, affine=True, track_running_stats=True)
          (2): LeakyReLU(negative_slope=0.2, inplace=True)
          (3): AvgPool2d(kernel_size=2, stride=2, padding=0)
        )
        (logits): Sequential(
          (0): Conv2d(512, 200, kernel_size=(4, 4), stride=(4, 4))
        )
        (jointConv): Sequential(
          (0): Conv2d(512, 512, kernel_size=(3, 3), stride=(1, 1), padding=(1, 1), bias=False)
          (1): BatchNorm2d(512, eps=1e-05, momentum=0.1, affine=True, track_running_stats=True)
          (2): LeakyReLU(negative_slope=0.2, inplace=True)
        )
        (uncond_logits): Sequential(
          (0): Conv2d(512, 1, kernel_size=(4, 4), stride=(4, 4))
          (1): Sigmoid()
        )
      )
    )
  )
)
/home/yangxue/.local/lib/python3.6/site-packages/torch/nn/_reduction.py:43: UserWarning: size_average and reduce args will be deprecated, please use reduction='none' instead.
  warnings.warn(warning.format(ret))
Starting normal FineGAN training..
Total filenames:  11788 001.Black_footed_Albatross/Black_Footed_Albatross_0046_18.jpg
…
